pretrained_models/DSCNNS.pt (torch, 215711 bytes, 56 tensors)

weight f4 [64, 1, 10, 4]
0	0x3bcd1bf0	0.006259434
1	0xbced42fc	-0.028962605
2	0x3dd0a740	0.101881504
3	0x3ccdfd57	0.025145216
4	0x3daaabad	0.08333526
5	0xbe3eaeec	-0.18621415
6	0x3d8febbb	0.07027384
7	0x3e09a0b0	0.13440204
8	0x3e3855c8	0.18001473
9	0xbe37fd5d	-0.17967744
10	0xbeacb986	-0.33735293
11	0x3df7e268	0.121037304
12	0x3df44623	0.1192744
13	0x3db85d3c	0.09002158
14	0xbee95f5e	-0.45580572
15	0xbe36c5aa	-0.1784884
16	0xbcfcb91e	-0.03084999
17	0x3e462746	0.19350919
18	0xbd2eaaaa	-0.042643227
19	0xbe923bbc	-0.285612
20	0x3d49481b	0.04914103
21	0x3e1491ce	0.14508745
22	0x3e4e23b5	0.20130809
23	0xbd3d88dd	-0.0462731
24	0x3c88176d	0.016612733
25	0x3dd33afd	0.103139855
26	0x3d8f4d4c	0.06997165
27	0x3ce5d6c6	0.028056514
28	0xbb1b36f3	-0.0023683875
29	0x3d37910a	0.044816054
30	0xbbbe056a	-0.0057989853
31	0xbcdb98f5	-0.026806334
32	0x3bcbc4aa	0.0062185125
33	0x3d40bb6c	0.04705374
34	0xbc05dd6d	-0.008170468
35	0xbcb80f63	-0.022468274
36	0x3c0fe53e	0.008782683
37	0x3da46c3a	0.08028455
38	0xbb9671af	-0.004591189
39	0x3ca1055d	0.019655878
40	0x3e3dfac2	0.18552688
41	0x3e0f6f6e	0.14007351
42	0xbde8eed9	-0.113736816
43	0xbe416508	-0.18886197
44	0x3e5ba30f	0.2144892
45	0x3b8f7d49	0.004378949
46	0x3c0dea9d	0.008661893
47	0xbd92d7ce	-0.07170068
48	0x3e2ef137	0.17084204
49	0x3e501df0	0.2032392
50	0x3dbfbe86	0.09362511
51	0xbbf1ba0d	-0.0073769153
52	0x3c3745de	0.011186091
53	0x3deb9d83	0.11504652
54	0x3e4a5150	0.19757581
55	0x3e7f845a	0.24952832
56	0xbe6d0243	-0.23145394
57	0xbe46a864	-0.19400173
58	0x3dc2d4b0	0.09513223
59	0x3e6776c2	0.22603896
60	0xbeaaa9a9	-0.33332565
61	0xbdbf422e	-0.09338795
62	0xbe216aab	-0.15763347
63	0xbe08f9c6	-0.13376531
64	0xbde339b6	-0.11094992
65	0xbd6a3878	-0.05718276
66	0xbdbc5051	-0.09195007
67	0xbd32d4f4	-0.04366012
68	0x3da500ec	0.080568165
69	0xbda6d56f	-0.08146178
70	0xbd0e00ef	-0.03466886
71	0x3cab525c	0.020913295
72	0xbcedb2eb	-0.029015979
73	0x3d438877	0.047737565
74	0xba64bf87	-0.00087260496
75	0x3c489734	0.012243081
76	0xbda10ddf	-0.07863974
77	0x3d4f02c9	0.050539766
78	0xbd1d9b67	-0.03847828
79	0xbd607168	-0.054795653
80	0x3b503082	0.0031767194
81	0x3d00bbb8	0.031429023
82	0x3d44c2b5	0.04803725
83	0xbc0ab528	-0.008466043
84	0x3c215460	0.009846777
85	0x3c76cffb	0.015064235
86	0x3cac7d24	0.021055765
87	0x3c5167ab	0.012781064
88	0xbca4b4d0	-0.02010575
89	0x3ceb3d7d	0.028715843
90	0xbc80bb2b	-0.015714249
91	0x3c5c3435	0.0134401815
92	0xbbc9b9fe	-0.006156205
93	0x3bbace48	0.00570086
94	0x3d6e3b4c	0.05816202
95	0x3d0a76b9	0.03380463
96	0xbce93d07	-0.028471483
97	0x3d7e37a1	0.06206477
98	0x3dd3b665	0.10337523
99	0x3b01c899	0.0019803403
100	0xbbff7581	-0.00779599
101	0xbce0b852	-0.02743164
102	0xbe0b5bc9	-0.13609232
103	0xbe5c178a	-0.21493354
104	0xbda98e27	-0.082790665
105	0xbe86652b	-0.2624906
106	0xbeee16f7	-0.46501896
107	0xbe53f77b	-0.20699875
108	0xbe044c67	-0.1291977
109	0xbe00486d	-0.12527628
110	0xbdacefa0	-0.08444142
111	0x3e56104c	0.20904654
112	0x3cbc0b7b	0.022954693
113	0x3e22b754	0.15890247
114	0x3e3e33fa	0.18574515
115	0x3e3b289c	0.1827721
116	0x3d62f9be	0.055413954
117	0xbb86a6b9	-0.0041092304
118	0x3db029a0	0.08601689
119	0x3d968511	0.07349599
120	0xbc2f737d	-0.010708687
121	0xbda4f6ef	-0.08054911
122	0x3b828206	0.003982785
123	0x3d6d8e5d	0.057997096
124	0xbc70c34b	-0.014694999
125	0xbd6a55b7	-0.05721065
126	0x3e6b5e25	0.22985132
127	0x3da6f55a	0.08152266
128	0xbd9b2df1	-0.07577122
129	0x3e556c5d	0.20842119
130	0x3e9b3618	0.30314708
131	0xbdc2376f	-0.09483229
132	0x3e0a0383	0.13477902
133	0x3eb7797a	0.35834867
134	0x3da3435b	0.079718314
135	0xbea02d92	-0.31284767
136	0x3c0f60fc	0.00875115
137	0x3e61ecbe	0.22062966
138	0xbe88da08	-0.26728845
139	0xbe9d0c6f	-0.3067355
140	0xbd306f5c	-0.04307495
141	0x3d787586	0.060658954
142	0xbe9e544f	-0.30923697
143	0xbe448c3d	-0.19194122
144	0x3dbddb55	0.0927035
145	0xbb6cd9d6	-0.0036140583
146	0xbddb8ce4	-0.10720232
147	0xbc9b92f0	-0.018990964
148	0xbc3a212b	-0.011360447
149	0x3ba6a79d	0.005085899
150	0x3ca16e0f	0.0197058
151	0x3d9b03db	0.07569095
152	0x3e0b7c5b	0.13621657
153	0x3cd18b4c	0.025579117
154	0xbd1b503d	-0.037918318
155	0x3ce612b7	0.028085096
156	0xbdbd4c50	-0.09243071
157	0xbd0645ed	-0.03278153
158	0xbe128d78	-0.14311779
159	0x3c8afa06	0.016964924
160	0x3d3c1d71	0.045926515
161	0xbdce1b36	-0.10063784
162	0x3e6dc522	0.23219731
163	0xbe3b53d0	-0.1829369
164	0x3d2c0bdf	0.04200351
165	0xbe348fca	-0.17632976
166	0x3e66c1b6	0.22534832
167	0xbdff2602	-0.12458421
168	0xbda5af03	-0.080900215
169	0xbd5154ff	-0.05110645
170	0x3d31c2e1	0.04339874
171	0x3c1a92dc	0.009434428
172	0xbd50c1d7	-0.05096611
173	0xbd180ae1	-0.03711975
174	0xbcc10cbc	-0.023565643
175	0x3e2059a2	0.15659192
176	0xbdcb47a2	-0.09925772
177	0xbe427ff9	-0.1899413
178	0x3c8867be	0.01665103
179	0x3d8fd323	0.07022693
180	0xbd6e6b10	-0.05820757
181	0xbe084499	-0.13307418
182	0xbdc4b32c	-0.09604487
183	0x3c77cc3e	0.015124379
184	0x3d15b8af	0.03655308
185	0x3deb804c	0.1149908
186	0xbe09bc32	-0.13450697
187	0xbb67c240	-0.0035363585
188	0xbcc8e05d	-0.024521047
189	0x3e89ecc0	0.26938438
190	0x3daa8a6c	0.08327183
191	0xbcdd0674	-0.026980616
192	0xbdd7513e	-0.105135426
193	0x3dc4dc25	0.09612302
194	0xbdbefd39	-0.09325642
195	0x3e2b8ed2	0.167537
196	0xbded1d24	-0.11577824
197	0x3d989090	0.07449448
198	0x3de0e5d1	0.10981334
199	0x3e624ebe	0.2210035
200	0x3c4ab773	0.012372839
201	0xbd5df598	-0.054189295
202	0xbd87dfb9	-0.066344686
203	0xbd77976f	-0.060447153
204	0x3db629e0	0.08894706
205	0xbda3f510	-0.08005726
206	0x3d2d7364	0.042346373
207	0xb96ec4bc	-0.00022770738
208	0x3d67ee88	0.056623966
209	0xbd5b478e	-0.053535037
210	0x3e0c0007	0.13671885
211	0xbd65bc3f	-0.05608773
212	0xbdb2f69e	-0.08738445
213	0x3e02788b	0.12741296
214	0x3d8795cb	0.066203676
215	0xbd4008bc	-0.04688333
216	0xbde5abbb	-0.112143956
217	0x3e731828	0.23739684
218	0xbe13931f	-0.14411591
219	0x3e4499b6	0.19199261
220	0xbd9e5ccd	-0.07732544
221	0x3eab75fe	0.33488458
222	0xbea3b892	-0.31976753
223	0x3e86bc24	0.26315415
224	0x3dc6f092	0.09713854
225	0x3e54b2a7	0.20771275
226	0xbebc8df5	-0.36827055
227	0x3dce80c7	0.10083156
228	0x3c5d6323	0.013512406
229	0x3d3f0a01	0.0466404
230	0xbe774185	-0.24146087
231	0x3d27f6f9	0.041007016
232	0xbce8a935	-0.028400997
233	0xbd2b8def	-0.041883405
234	0xbcdef14e	-0.027214672
235	0x3daf16bb	0.08549257
236	0xbca239c4	-0.019802935
237	0xbdad5d88	-0.08465105
238	0x3e2138c7	0.15744315
239	0x3dfab34a	0.12241228
240	0xbd304a6e	-0.04303973
241	0xbd4631e6	-0.04838743
242	0x3c5b58bb	0.013387854
243	0xbc106019	-0.008811974
244	0x3dd31105	0.103059806
245	0xbd187f4a	-0.037230767
246	0xbbf2c3a9	-0.0074085784
247	0x3d0b45da	0.034002163
248	0xbdf15997	-0.11784666
249	0xbe31d314	-0.17365676
250	0x3c0d54b2	0.00862615
251	0xbd350652	-0.04419548
252	0x3d867972	0.065661326
253	0x3e3bd745	0.18343838
254	0xbd626d48	-0.05528
255	0xbb40475f	-0.0029339415

bias f4 [64]
0	0xbd859c3a	-0.065239385
1	0x3da6336c	0.08115277
2	0xbd8a5e78	-0.067563
3	0x3e1853a3	0.14875655
4	0xbc7eb295	-0.015545507
5	0x3d90eba9	0.070761986
6	0x3d7fe575	0.062474687
7	0xbe0590d3	-0.13043527
8	0xbd5d94a8	-0.054096848
9	0xbb11c527	-0.0022242756
10	0xbd989847	-0.074509196
11	0xbe130206	-0.1435624
12	0x3cfcf645	0.03087915
13	0xbd88fe82	-0.066891685
14	0xbdbdc962	-0.09266926
15	0xbd0ec5ec	-0.03485672
16	0xbde4bbbb	-0.11168619
17	0xbe09802a	-0.13427797
18	0x3d582b4d	0.05277567
19	0xbcf46e44	-0.029837735
20	0x3d8b2e27	0.06795912
21	0x3d24367f	0.040091034
22	0x3c79ee21	0.015254528
23	0xbbff55b4	-0.007792199
24	0xbd85dcce	-0.06536256
25	0xbe1a096e	-0.1504266
26	0xbdf98e54	-0.1218535
27	0xbd869b6e	-0.065726146
28	0xbdb8f371	-0.09030808
29	0xbcd5ddf2	-0.026106808
30	0x3e17e04b	0.14831655
31	0x3cb47901	0.022030355
32	0x3c6fc173	0.014633524
33	0xbdb63ae3	-0.088979505
34	0x3bdb178d	0.006686157
35	0xbe0447b4	-0.12917978
36	0xbe028723	-0.12746863
37	0xbd018190	-0.0316177
38	0xbe17d1b2	-0.14826086
39	0xbe067556	-0.13130698
40	0xbe103104	-0.14081198
41	0x3c19f6bd	0.009397206
42	0xbd28b48f	-0.04118782
43	0xbb4a9389	-0.0030910692
44	0xbc457761	-0.012052388
45	0xbcb61c4a	-0.022230286
46	0x3dc9c1a7	0.098513894
47	0x3e194330	0.14967036
48	0xbcb019bb	-0.021496644
49	0x3dc960bc	0.09832904
50	0xbe10fdec	-0.14159364
51	0xbe0190ed	-0.12652941
52	0x3d455fe2	0.048187144
53	0xbde41d7c	-0.11138436
54	0xbd97a11a	-0.074037746
55	0xbe0cbd2d	-0.1374404
56	0x3dad07c8	0.0844875
57	0xbd544f3f	-0.051833387
58	0xbbab704d	-0.005231893
59	0xbc94f924	-0.018185206
60	0xbbe6a455	-0.007038633
61	0xbdce2ecc	-0.100675195
62	0x3e1cbc6d	0.15306254
63	0x3d947230	0.07248342

weight f4 [64]
0	0x3f396738	0.72423124
1	0x3ee7862f	0.4521956
2	0x3f2eedde	0.68331707
3	0x3f00f18a	0.5036856
4	0x3f41e86c	0.7574527
5	0x3f049fd1	0.5180636
6	0x3f70d7ab	0.94079083
7	0x3f53ea1e	0.8277911
8	0x3f306d1a	0.68916476
9	0x3f5f4d2f	0.8722715
10	0x3f339066	0.7014221
11	0x3f29fd86	0.6640247
12	0x3f594a28	0.8487878
13	0x3ecc05af	0.39848086
14	0x3f5e348f	0.8679895
15	0x3f8409a4	1.0315442
16	0x3f62fe6e	0.8866948
17	0x3f840947	1.0315331
18	0x3f750025	0.95703346
19	0x3f43a101	0.7641755
20	0x3f737954	0.9510701
21	0x3f516036	0.8178743
22	0x3f04dee8	0.5190263
23	0x3f854095	1.0410334
24	0x3f4f2b86	0.80925786
25	0x3f72a407	0.94781536
26	0x3f85baec	1.0447669
27	0x3f0e8f66	0.5568756
28	0x3f99e859	1.2024032
29	0x3f71f939	0.9452091
30	0x3f896640	1.0734329
31	0x3f49e33e	0.7886237
32	0x3f273891	0.6532069
33	0x3f7c2d3b	0.98506516
34	0x3f5dd1d1	0.8664828
35	0x3f63b86d	0.88953286
36	0x3f229618	0.63510275
37	0x3f852b57	1.0403851
38	0x3f62f257	0.8865103
39	0x3f7e6e66	0.99387205
40	0x3f536417	0.825746
41	0x3f53b638	0.8269992
42	0x3f5042a4	0.81351686
43	0x3f1f79c6	0.62295187
44	0x3f79ee71	0.9762946
45	0x3f46f50b	0.77717656
46	0x3f6d03fd	0.9258421
47	0x3f53721b	0.82595986
48	0x3f3ca550	0.73689747
49	0x3f7943f8	0.9736934
50	0x3f1ed964	0.6205046
51	0x3f845619	1.0338775
52	0x3f4a3969	0.7899385
53	0x3f668bde	0.9005717
54	0x3f1abed5	0.60447437
55	0x3f3eadad	0.7448376
56	0x3f50d474	0.8157418
57	0x3f7adb68	0.9799104
58	0x3f41b43c	0.7566564
59	0x3f5781df	0.8418254
60	0x3f80b7ca	1.0056088
61	0x3f4d7b22	0.8026601
62	0x3f35ff58	0.7109275
63	0x3f7b9e44	0.9828837

bias f4 [64]
0	0x3e68ac03	0.22721867
1	0x3ee247dd	0.44195452
2	0x3e70a181	0.23499109
3	0x3ec751dd	0.38929644
4	0x3e2fd0bb	0.17169468
5	0x3eb0ce79	0.34532526
6	0x3dd01608	0.10160452
7	0x3e099085	0.13434036
8	0x3e9999b2	0.30000073
9	0x3da839e8	0.0821417
10	0x3e72847d	0.23683353
11	0x3e9040e2	0.28174502
12	0x3e0e6fdb	0.13909857
13	0x3ef1a3e8	0.47195363
14	0x3e1376f4	0.14400846
15	0x3df11e97	0.11773413
16	0x3e0185f9	0.12648763
17	0xbbecfa5e	-0.0072319945
18	0x3da336e3	0.07969453
19	0x3e02b8cb	0.12765805
20	0x3d9d31ef	0.0767554
21	0x3e4b58b2	0.19858053
22	0xbe99dbe8	-0.30050588
23	0x3d12fa58	0.035883278
24	0x3e318d1f	0.1733899
25	0xbd9235a4	-0.071391374
26	0xbd77a327	-0.06045833
27	0x3eb8e136	0.36109322
28	0x3c0db7eb	0.0086498065
29	0xbd438a4c	-0.047739312
30	0x3caef597	0.02135734
31	0xbe23822b	-0.15967624
32	0x3e8042ea	0.2505105
33	0x3d902ed9	0.070401855
34	0x3dd93df7	0.10607522
35	0x3de35a15	0.11101166
36	0x3e93fc3d	0.2890338
37	0xbda86674	-0.082226664
38	0x3d943114	0.072359234
39	0x3d7ded29	0.06199375
40	0x3e566fd1	0.20941092
41	0x3e3b0a3f	0.18265627
42	0x3e4df313	0.20112257
43	0x3ea164ee	0.31522316
44	0x3d0754f7	0.033040013
45	0x3e182621	0.14858295
46	0xbd6a034e	-0.057132058
47	0x3e31bcfd	0.1735725
48	0x3e536df2	0.2064741
49	0x3e43b558	0.19112146
50	0xbe9aceee	-0.30236
51	0x3b9e38a1	0.004828528
52	0x3e46d54d	0.19417305
53	0x3e13b953	0.14426164
54	0x3ea8d206	0.32972735
55	0x3e80671d	0.2507867
56	0x3e1839fa	0.14865866
57	0x3dc01301	0.09378625
58	0x3e468d26	0.19389781
59	0x3e12e286	0.14344224
60	0x3bf791eb	0.0075552366
61	0x3e408012	0.18798855
62	0x3e830ace	0.2559418
63	0x3b25cf00	0.0025300384

running_mean f4 [64]
0	0xc178e871	-15.556748
1	0xc0d4d096	-6.650462
2	0x3f8366bc	1.0265727
3	0xc21263ff	-36.597652
4	0x40cb741e	6.3579245
5	0xc222a831	-40.66425
6	0x41111e93	9.069964
7	0xc22a4539	-42.5676
8	0xc1c73559	-24.901049
9	0xc199c94e	-19.223293
10	0x41614a19	14.08059
11	0xc20f0394	-35.753494
12	0x4078f734	3.890088
13	0x41202831	10.009812
14	0x41de39c2	27.778202
15	0xc1342e22	-11.261263
16	0xc21c13da	-39.019386
17	0xc23f0ea4	-47.764297
18	0xc150b8ad	-13.045087
19	0x4187f2a4	16.993477
20	0x40b2e8e8	5.590931
21	0x406a95c3	3.6653907
22	0xbfce3698	-1.6110411
23	0xc17345af	-15.204513
24	0x412aebb6	10.682547
25	0xc217a34c	-37.90947
26	0xc0585aa3	-3.380532
27	0x41814a7e	16.161373
28	0x40a18591	5.0475545
29	0xc0d15c99	-6.5425534
30	0x400be1b8	2.1856518
31	0xbfe8b2c0	-1.817955
32	0xc18303a8	-16.376785
33	0x41919053	18.19547
34	0x4008eee9	2.139582
35	0xc1f36a0f	-30.426786
36	0xc0e8dac0	-7.276703
37	0xc20b61e2	-34.84559
38	0x3f487ab5	0.78312236
39	0xc15299c8	-13.162544
40	0x418a7a6b	17.309774
41	0x41522f52	13.136553
42	0x419253a6	18.290844
43	0xc0cca085	-6.3945947
44	0x3f990c8c	1.1956954
45	0xc20ce305	-35.2217
46	0xc23209ba	-44.5095
47	0xc094872f	-4.641502
48	0xc1f870b1	-31.055025
49	0xc1a7b531	-20.963472
50	0xc107d508	-8.48951
51	0xc0dd0fa6	-6.90816
52	0x41ae6f55	21.804361
53	0x40e7762b	7.233175
54	0xbf2e67fe	-0.6812743
55	0x413ada2a	11.678263
56	0xbfa41899	-1.2820007
57	0x412deb1c	10.8699
58	0xc0cf9601	-6.487061
59	0x3fe16525	1.7608992
60	0xbeb2675a	-0.34844476
61	0x41e51f63	28.640326
62	0xc0cfdce3	-6.4957137
63	0x407517c2	3.829575

running_var f4 [64]
0	0x4522034b	2592.2058
1	0x43d60a69	428.08133
2	0x43bd6063	378.75302
3	0x45f6395f	7879.1714
4	0x44cc6ae8	1635.3408
5	0x45eb22ed	7524.3657
6	0x435f77bf	223.46776
7	0x46185802	9750.002
8	0x44d864bb	1731.1478
9	0x451c3196	2499.099
10	0x4539dccd	2973.8
11	0x45ce96fe	6610.874
12	0x4465aac5	918.6683
13	0x44083656	544.849
14	0x45448051	3144.0198
15	0x454967e2	3222.4927
16	0x4620fbc1	10302.938
17	0x46338c69	11491.103
18	0x451b3235	2483.138
19	0x448821cd	1089.0563
20	0x4324ad3d	164.67671
21	0x438846a3	272.55185
22	0x4304a644	132.64948
23	0x44ed0b74	1896.3579
24	0x448e4052	1138.01
25	0x4635ec77	11643.116
26	0x438228f9	260.3201
27	0x440dd9bc	567.4021
28	0x43c7eeda	399.86603
29	0x447b07f5	1004.1243
30	0x44ce4461	1650.1368
31	0x449f1b90	1272.8613
32	0x452ad481	2733.2815
33	0x45abf6f0	5502.867
34	0x4427d47c	671.32007
35	0x45b09b72	5651.4307
36	0x44f877b1	1987.7404
37	0x45c1ecfd	6205.6235
38	0x43a22d7b	324.35532
39	0x446dcc52	951.1925
40	0x442b917e	686.2733
41	0x455ac3a4	3500.2275
42	0x459479af	4751.2104
43	0x448e1c0d	1136.8766
44	0x43cd7c7b	410.9725
45	0x45dcb25d	7062.2954
46	0x45a3040e	5216.507
47	0x445ab24a	874.78577
48	0x45d68f73	6865.931
49	0x4489e1da	1103.0579
50	0x43e2e187	453.76193
51	0x4437723f	733.7851
52	0x449e6f7a	1267.4836
53	0x446f3c36	956.9408
54	0x4478fe2b	995.9714
55	0x448b0f2d	1112.4742
56	0x444b1e3c	812.4724
57	0x43fe5f08	508.74243
58	0x440d8078	566.0073
59	0x449aefa4	1239.4888
60	0x449893a8	1220.6143
61	0x44d418fe	1696.781
62	0x44930518	1176.1592
63	0x4381750a	258.91437

weight f4 [64, 1, 3, 3]
0	0x3c507a04	0.012724403
1	0xbd7a2fcc	-0.06108074
2	0xba82f78f	-0.0009991991
3	0x3cf829ac	0.030293308
4	0xbe5d9e4b	-0.21642415
5	0x3f0ae032	0.54248345
6	0xbc73263d	-0.01484066
7	0x3e6851fc	0.22687525
8	0xbe70a4d7	-0.23500381
9	0x3e3ec7d5	0.18630917
10	0x3e366938	0.17813575
11	0x3c76b46e	0.015057666
12	0x3eb577ac	0.35442865
13	0x3eb9d802	0.36297613
14	0x3ebdf2a2	0.37099177
15	0xbd194442	-0.03741861
16	0x3daa139d	0.08304522
17	0xbcbeb29e	-0.02327853
18	0xbd323e11	-0.043516222
19	0xbdc2104d	-0.094757654
20	0x3ed9927f	0.4249458
21	0x3da334eb	0.07969078
22	0x3e330841	0.17483617
23	0xbe38c998	-0.18045652
24	0xbd4db8d6	-0.0502251
25	0xbd698db2	-0.057019897
26	0xbc22067a	-0.009889239
27	0xbdc81725	-0.097700395
28	0x3d3d854c	0.0462697
29	0x3e3518a2	0.17685178
30	0x3e5c5db8	0.21520126
31	0x3dcbe820	0.09956384
32	0xbe9adf03	-0.3024827
33	0xbe1625bf	-0.14662836
34	0xbe61f5d1	-0.22066428
35	0xbefdb087	-0.49548742
36	0x3e9b9b88	0.30392098
37	0x3c9ee80a	0.019397754
38	0x3d9e580a	0.07731636
39	0x3eb2b68b	0.34904894
40	0x3e533e1f	0.20629166
41	0x3d51afc6	0.05119302
42	0x3be6cd99	0.007043552
43	0xbcde5328	-0.027139261
44	0xbe284abe	-0.16434762
45	0x3da57b7f	0.08080196
46	0x3ea2725a	0.31727868
47	0xbeccdbce	-0.40011448
48	0xbd96b0f2	-0.073579684
49	0x3e5c767e	0.21529576
50	0xbe57249c	-0.21010059
51	0x3b0e7945	0.0021739763
52	0xbdb8ca14	-0.09022918
53	0xbc3057c9	-0.010763117
54	0x3d393cec	0.045224115
55	0xbdb6de18	-0.0892908
56	0xbe3a6cc1	-0.18205549
57	0x3e912292	0.28346688
58	0x3dce2a02	0.10066606
59	0x3ebf468f	0.3735852
60	0xbeadf018	-0.3397224
61	0x3d9e395c	0.07725784
62	0xbdc8a1db	-0.097964965
63	0x3e078851	0.13235594
64	0xbe55691f	-0.20840882
65	0xbcddb28e	-0.02706268
66	0x3eb6eb0f	0.3572621
67	0xbdd89609	-0.10575492
68	0x3ebf11ef	0.3731837
69	0xbea1adff	-0.3157806
70	0x3e154cdd	0.14580102
71	0xbe697b09	-0.2280084
72	0x3c0a211f	0.008430748
73	0x3ea67e5b	0.32518277
74	0xbc2c49bb	-0.010515626
75	0xbe9063b3	-0.28201064
76	0xbe27daed	-0.16392107
77	0xbddd1330	-0.10794675
78	0xbd40d0f3	-0.04707427
79	0xbeaa64fb	-0.33280167
80	0x3d84e4ca	0.064889506
81	0x3e0c958a	0.1372892
82	0xbda8cc2c	-0.08242068
83	0x3ddb86b4	0.10719052
84	0x3e984a72	0.29744297
85	0xbe814d51	-0.252543
86	0x3eebe077	0.4606969
87	0xbe73ad03	-0.23796467
88	0x3ee28b94	0.44247115
89	0xbe531fb4	-0.20617563
90	0x3e1239ae	0.14279816
91	0xbe05dbf7	-0.13072191
92	0xbe2078ec	-0.15671128
93	0x3e971c90	0.2951398
94	0x3ba8b976	0.005149062
95	0xbf156795	-0.5836118
96	0x3e80408c	0.25049245
97	0x3e5491b5	0.20758708
98	0xbe9196cc	-0.2843536
99	0x3e92c0af	0.2866263
100	0x3e3ae986	0.18253145
101	0xbe1f695e	-0.15567538
102	0xbc752d3c	-0.014964398
103	0x3e4d9c38	0.20079124
104	0x3ed3505c	0.41272247
105	0xbe013361	-0.12617256
106	0xbe587c1c	-0.21141094
107	0xbd8093c1	-0.06278182
108	0x3d7f96af	0.062399562
109	0x3df4f786	0.11961274
110	0xbd39a664	-0.045324698
111	0x3e0c1e64	0.13683468
112	0x3d752946	0.059853815
113	0xbe3f80fe	-0.1870155
114	0xbeb9bd26	-0.3627712
115	0xbea6fbc7	-0.32613966
116	0x3e24a53c	0.16078657
117	0x3e0053ad	0.1253192
118	0xbcf112d7	-0.029427929
119	0x3d143369	0.03618184
120	0xbea4ae4f	-0.32164237
121	0x3ea739a5	0.32661167
122	0x3e6f22f5	0.23353179
123	0x3cf07a11	0.02935508
124	0xbe3be2be	-0.18348214
125	0xbe049c01	-0.12950136
126	0xbe4e907c	-0.20172304
127	0xbe0639c1	-0.13107969
128	0xbddc0284	-0.10742667
129	0xbd656232	-0.05600185
130	0x3d8ceb93	0.0688087
131	0x3de101c0	0.10986662
132	0x3e9fa2aa	0.3117879
133	0xbd5e3fc3	-0.054260027
134	0xbe403e62	-0.18773797
135	0x3e97a032	0.29614407
136	0x3d6dec25	0.058086533
137	0x3d2b476b	0.041816156
138	0x3d7d87d2	0.061897106
139	0x3d0adab6	0.033899985
140	0xbe319363	-0.1734138
141	0xbcf49d9d	-0.029860312
142	0xbe54894b	-0.20755498
143	0xbe53575c	-0.20638794
144	0xbd6a65b9	-0.057225917
145	0xbc66ecb2	-0.0140945185
146	0x3c6aee6a	0.014339069
147	0xbe983db0	-0.29734564
148	0x3ec14aee	0.3775248
149	0xbe9dca21	-0.30818275
150	0xbd878856	-0.06617801
151	0xbe32e8a3	-0.17471556
152	0x3ec7d916	0.3903281
153	0x3e5fe1ac	0.2186343
154	0xbe691712	-0.22762707
155	0x3e12e83d	0.14346404
156	0x3da082b7	0.07837432
157	0xbe5f7587	-0.21822177
158	0x3ed58db4	0.41709673
159	0xbdcfb447	-0.10141807
160	0x3e13e14f	0.14441417
161	0xbe562715	-0.20913346
162	0xbea14254	-0.31495917
163	0x3bfffdf9	0.0078122583
164	0x3e94871a	0.29009324
165	0xbe7ab5fb	-0.24483483
166	0x3e3218ce	0.17392275
167	0xbe5f2690	-0.21792054
168	0xbe8734fc	-0.2640761
169	0x3e1a424f	0.15064357
170	0xbc46678e	-0.01210965
171	0x3e501802	0.20321658
172	0x3e9ef6a1	0.31047538
173	0xbb67f9e4	-0.003539675
174	0x3e10c99c	0.14139408
175	0xbca3f49a	-0.020014096
176	0x3e8faf9d	0.2806367
177	0xbe803f10	-0.25048113
178	0x3e433a3f	0.19065188
179	0x3d910907	0.070818
180	0xbd892d10	-0.06698048
181	0x3e759f66	0.23986587
182	0xbcfc54e8	-0.030802205
183	0xbe33e5a1	-0.17568065
184	0xbed15963	-0.4088851
185	0x3e58e31d	0.21180387
186	0xbd94719a	-0.0724823
187	0x3e95b66d	0.29240742
188	0x3d746cf3	0.059674215
189	0x3c03ff0f	0.008056416
190	0xbd3aaa8a	-0.045572795
191	0xbd220a3b	-0.039560538
192	0xbc03ecea	-0.00805209
193	0xbe2449db	-0.16043799
194	0xbe4e4d51	-0.20146681
195	0xbe2b9247	-0.16755019
196	0xbe964ddc	-0.29356277
197	0xbe411e91	-0.18859316
198	0x3e799ffc	0.24377435
199	0xbd45dc8a	-0.048306026
200	0xbc05bdca	-0.008162925
201	0x3e077959	0.13229884
202	0x3ecdeaeb	0.4021829
203	0xbcbe1c0d	-0.023206735
204	0xbd0601c4	-0.032716528
205	0xbea94496	-0.3306014
206	0x3b8b7c13	0.004256734
207	0x3c18633e	0.009301005
208	0xbd360e5b	-0.044447284
209	0xbd48d3a8	-0.049029976
210	0x3eb5159e	0.35368055
211	0xbe0e69ac	-0.13907498
212	0x3d9d1a77	0.076710634
213	0xbddb63c8	-0.10712391
214	0xbc2e6d8b	-0.010646234
215	0x3d63a0cc	0.05557327
216	0xbe667f57	-0.22509514
217	0x3e1442af	0.14478563
218	0x3e1b9ebb	0.1519727
219	0x3d8dbafa	0.069204286
220	0x3ebe9331	0.37221673
221	0x3edc866c	0.43071306
222	0xbe8dc138	-0.27686477
223	0x3d0b7f94	0.034057215
224	0x3e4beab5	0.19913752
225	0xbdf439e9	-0.11925108
226	0x3e829191	0.25501683
227	0x3ed57d94	0.4169737
228	0x3d8c1568	0.068400204
229	0xbe410bda	-0.18852177
230	0xbd1aa852	-0.03775818
231	0xbe0a4ad7	-0.13505112
232	0xbc7b13ac	-0.015324514
233	0xbe6525ae	-0.22377655
234	0x3ed01f33	0.40648803
235	0xbe3d04ba	-0.18458834
236	0xbe4ba1dd	-0.19885965
237	0x3e369311	0.17829539
238	0xbd306bdd	-0.043071616
239	0xbe437110	-0.19086099
240	0x3db522bf	0.08844518
241	0xbdd0a0b7	-0.10186904
242	0xbcf5c591	-0.030001434
243	0x3db1b69a	0.086774066
244	0x3ca7d32b	0.020486435
245	0xbd866f0c	-0.06564149
246	0xbe4e819a	-0.20166627
247	0xbc921050	-0.017830044
248	0x3edeac37	0.43490764
249	0xbd467172	-0.048448034
250	0xbed10056	-0.4082057
251	0x3d9246ee	0.07142435
252	0xbc9d8881	-0.01923013
253	0x3e2b9a2b	0.16758029
254	0x3d497d66	0.049191855
255	0x3f626daa	0.88448584

bias f4 [64]
0	0x3cacaed1	0.021079453
1	0xbdf6a97c	-0.12044045
2	0x3d7766db	0.060400825
3	0x3e3a210e	0.18176672
4	0xbe1ea83c	-0.15493864
5	0xbdf39ffc	-0.11895749
6	0x3e89d2ef	0.26918742
7	0x3db2fe93	0.087399624
8	0xbc4f8797	-0.0126666045
9	0x3e3ed7a9	0.18636955
10	0x3dbd9c55	0.092583336
11	0x3c98f183	0.01866985
12	0xbe88e354	-0.26735938
13	0xbd343f4a	-0.04400567
14	0x3e56d2ca	0.20978847
15	0xbe021547	-0.12703429
16	0xbdfa1388	-0.122107565
17	0x3d06387c	0.03276871
18	0xbde427d1	-0.11140407
19	0x3e6815cc	0.22664565
20	0xbec06298	-0.3757522
21	0x3e929c6c	0.28634965
22	0x3c6e93f0	0.014561638
23	0xbdf3529a	-0.118809894
24	0xbe5fc844	-0.21853739
25	0xbd1006ea	-0.035162844
26	0xbe10ff58	-0.14159906
27	0xbe9d6305	-0.30739608
28	0xbcf46912	-0.029835258
29	0x3d3ec240	0.04657197
30	0xbe9df04d	-0.30847397
31	0x3e1fd3c9	0.15608133
32	0x3e632a6e	0.22184154
33	0x3c131113	0.008976239
34	0x3b887a70	0.0041649863
35	0xbe194970	-0.1496942
36	0x3dd46eb5	0.10372678
37	0x3b31444b	0.0027048762
38	0xbdcb6e45	-0.099331416
39	0x3d2e772a	0.042594112
40	0x3de436d6	0.111432716
41	0x3e46e1f0	0.19422126
42	0x3e77dd64	0.24205548
43	0x3ea95ae7	0.33077165
44	0xbd28944b	-0.04115705
45	0xbce08d1d	-0.027411038
46	0xbeb05750	-0.34441614
47	0x3e054639	0.13015069
48	0xbe00dda4	-0.12584549
49	0x3e69e9d5	0.22843106
50	0x3d2d04f9	0.04224107
51	0xbe694771	-0.22781159
52	0x3e1fa771	0.15591218
53	0x3e73f881	0.23825265
54	0xbd0be5fc	-0.034154877
55	0x3e842ba5	0.25814548
56	0x3cd687a7	0.026187731
57	0xbe314b2c	-0.17313832
58	0xbec3ab66	-0.38216704
59	0x3decd612	0.11564268
60	0x3e5f60dc	0.21814293
61	0xbce88c3e	-0.028387185
62	0x3dc49faf	0.0960077
63	0x3d07c179	0.033143494

weight f4 [64]
0	0x3f6557b0	0.89586926
1	0x3f577ebc	0.84177756
2	0x3f37530c	0.71611094
3	0x3f8bd88f	1.0925463
4	0x3f8505ac	1.0392356
5	0x3f9e7d56	1.2382
6	0x3f62cd79	0.88594776
7	0x3f5d3a56	0.8641714
8	0x3f446f96	0.76732767
9	0x3f376602	0.71640027
10	0x3f8f4379	1.1192466
11	0x3f7f9979	0.99843556
12	0x3f670d02	0.90254223
13	0x3f78df5e	0.9721583
14	0x3f91b46d	1.1383187
15	0x3f73bf33	0.9521362
16	0x3f8e379d	1.1110722
17	0x3f490890	0.7852869
18	0x3f985b3d	1.1902844
19	0x3f62ae8c	0.8854759
20	0x3f7bcf53	0.98363227
21	0x3f74b386	0.9558643
22	0x3fa01705	1.2507025
23	0x3f6c571a	0.92320406
24	0x3f8453c0	1.0338058
25	0x3f703842	0.9383584
26	0x3f4c6e78	0.7985606
27	0x3f633549	0.8875318
28	0x3f78e1b9	0.97219425
29	0x3f56eb00	0.8395233
30	0x3fa00675	1.250197
31	0x3f889205	1.0669562
32	0x3f5f5d40	0.87251663
33	0x3f97b716	1.1852748
34	0x3f420c17	0.757997
35	0x3f8c6135	1.0967165
36	0x3f692da2	0.91085255
37	0x3f56ba1e	0.8387774
38	0x3f7db1a3	0.9909918
39	0x3f34f909	0.706925
40	0x3f7b84c2	0.9824945
41	0x3f912414	1.1339135
42	0x3f765486	0.9622272
43	0x3f69e03c	0.9135778
44	0x3f578145	0.84181625
45	0x3faabed4	1.3339486
46	0x3f674454	0.90338635
47	0x3f61e534	0.8824036
48	0x3f75cad2	0.96012604
49	0x3f3f25f3	0.7466728
50	0x3f96af3e	1.177223
51	0x3f3aeca8	0.7301736
52	0x3f814d02	1.0101626
53	0x3f5f7fbf	0.873043
54	0x3f680b70	0.9064245
55	0x3f721b3c	0.94572806
56	0x3f79bf44	0.97557473
57	0x3f9550fe	1.1665342
58	0x3f3d1c3f	0.73871225
59	0x3f95ef69	1.1713687
60	0x3f8cbe88	1.0995646
61	0x3f84a6c2	1.036339
62	0x3f717f8e	0.9433526
63	0x3fc3b884	1.5290685

bias f4 [64]
0	0xbdd77c89	-0.105218
1	0x3e43bb2a	0.19114366
2	0x3eb1ec14	0.34750426
3	0x3f048931	0.5177184
4	0x3e0a6398	0.13514555
5	0x3e2b2e02	0.1671677
6	0xbea19f0a	-0.3156665
7	0x3ddfee27	0.10934096
8	0x3d63beda	0.055601932
9	0x3ea19881	0.31561664
10	0x3dd99547	0.106241755
11	0x3d17389b	0.036919218
12	0x3e5b804b	0.21435659
13	0x3ec04e1f	0.37559602
14	0x3c4c3406	0.012463575
15	0x3dce994f	0.10087835
16	0xbdb6294b	-0.08894595
17	0xbbaa8072	-0.0052033
18	0x3e4eaf8d	0.20184155
19	0x3dbd65df	0.09247946
20	0xbeb02671	-0.34404328
21	0x3ebfafc3	0.37438783
22	0xbd870daa	-0.06594403
23	0xbada3e27	-0.0016650603
24	0x3e22d745	0.15902431
25	0x3d997c74	0.07494441
26	0x3e06c452	0.13160828
27	0xbe8f292a	-0.27961093
28	0x3ef96c76	0.48715562
29	0x3e99f5ad	0.30070248
30	0x3dfaf9ef	0.12254702
31	0x3ee2ef40	0.44323158
32	0x3d9a169f	0.07523846
33	0x3e0afae4	0.1357227
34	0x3e709c7f	0.23497199
35	0x3c8f2e25	0.017478058
36	0x3e986c15	0.2976996
37	0xbdf4f491	-0.1196071
38	0xbbb77d19	-0.0055996296
39	0x3e512e3a	0.2042779
40	0x3dc7d9a5	0.09758309
41	0x3dfa5a9b	0.12224313
42	0x3ee4d1bb	0.44691262
43	0x3e6135a0	0.21993113
44	0x3e5d4d8d	0.21611615
45	0x3e068587	0.13136874
46	0x3d0d0793	0.03443105
47	0x3da45f49	0.08025987
48	0x3d2b31e8	0.04179564
49	0x3e719353	0.23591356
50	0x3d58207c	0.052765355
51	0x3f024369	0.5088411
52	0x3e580fef	0.21099828
53	0x3d897898	0.067124546
54	0x3efa84fb	0.4892958
55	0x3ed6e79c	0.4197358
56	0x3d961bba	0.07329507
57	0x3db59e4a	0.08868082
58	0x3e33960d	0.17537709
59	0xbcd56c58	-0.026052639
60	0x3e93811a	0.28809434
61	0xbca001a8	-0.01953204
62	0x3e35b92c	0.17746419
63	0xbe905dac	-0.28196466

running_mean f4 [64]
0	0x3e109920	0.14120913
1	0x3f08511a	0.5324875
2	0x3db73bb5	0.08946935
3	0xbe1f6b92	-0.15568379
4	0x3d85d69d	0.06535075
5	0xbe484363	-0.19556956
6	0x3ea45f2d	0.32103863
7	0x3e044148	0.12915528
8	0xbe694c52	-0.2278302
9	0x3ed1c5de	0.40971273
10	0x3e99a17e	0.3000602
11	0x3e7a1ed9	0.2442583
12	0xbeb8bd81	-0.3608208
13	0xbc5936a3	-0.013257655
14	0x3e44a9bd	0.19205375
15	0xbe4e1f33	-0.20129089
16	0xbe0ec2fd	-0.1394157
17	0x3dcfb346	0.101416156
18	0xbe68087c	-0.22659487
19	0x3ecdc796	0.40191334
20	0xbedf5c16	-0.43624943
21	0x3d6304c0	0.05542445
22	0x3d225ec1	0.039641146
23	0xbda8c2d1	-0.08240283
24	0xbe0cface	-0.1376755
25	0xbca521c4	-0.020157702
26	0xbe2a75c5	-0.16646488
27	0xbed5a40a	-0.41726714
28	0x3ec30bbb	0.38094887
29	0x3e19ceb4	0.15020257
30	0xbe0fd721	-0.14046909
31	0x3de7991c	0.113085
32	0x3e3b933e	0.18317887
33	0xbc192cf3	-0.009349096
34	0x3db9cfcd	0.09072838
35	0x3e82dba1	0.2555819
36	0x3efd0a78	0.4942205
37	0x3c606b7c	0.013697501
38	0xbd904b3b	-0.07045599
39	0x3e93d69e	0.28874677
40	0x3d2696a4	0.040671006
41	0x3e51193a	0.2041978
42	0x3e974333	0.29543456
43	0x3e4e05f9	0.20119466
44	0xbc1d9bd2	-0.00961967
45	0xbf129dc2	-0.5727197
46	0xbeede818	-0.46466136
47	0x3bab838e	0.0052341884
48	0x3e07e13b	0.13269512
49	0xbeccf56a	-0.40030986
50	0x3d954e96	0.0729038
51	0xbe89aa82	-0.268879
52	0x3e3aac5f	0.18229817
53	0x3e535777	0.20638834
54	0xbdc1864d	-0.09449444
55	0x3e5c269b	0.21499102
56	0x3da06aa1	0.07832838
57	0xbeba7048	-0.3641379
58	0xbe725347	-0.2366458
59	0x3e886c21	0.26644996
60	0x3eafdf3d	0.34350005
61	0x3ca82266	0.020524215
62	0x3d162d89	0.03666452
63	0x3d263621	0.040578965

running_var f4 [64]
0	0x3c2e126e	0.010624511
1	0x3d9baf83	0.076018356
2	0x3c098d28	0.008395471
3	0x3cefd9a9	0.029278593
4	0x3e160203	0.14649205
5	0x3d1d9f61	0.038482074
6	0x3d46e234	0.048555568
7	0x3b86606e	0.004100851
8	0x3cec9c36	0.02888308
9	0x3c9bfedd	0.019042427
10	0x3e3c8054	0.18408328
11	0x3c06a460	0.008217901
12	0x3d20aedb	0.039229255
13	0x3c9529d2	0.018208418
14	0x3cc66247	0.024216784
15	0x3d6629d7	0.056192245
16	0x3c812160	0.015762985
17	0x3c2c7310	0.01052548
18	0x3db5c155	0.08874766
19	0x3defbc5d	0.11705849
20	0x3de3e9c6	0.11128573
21	0x3d9d9578	0.076945245
22	0x3cfd1c9b	0.03089743
23	0x3c1998ad	0.00937478
24	0x3e7fbdc7	0.24974738
25	0x3bcf5510	0.006327279
26	0x3e0e071a	0.13869897
27	0x3d7a00eb	0.06103603
28	0x3f097790	0.5369806
29	0x3d562875	0.052284677
30	0x3df8b57b	0.1214399
31	0x3d2cc84e	0.042183213
32	0x3b1e1329	0.0024120307
33	0x3c6c7ca1	0.014434011
34	0x3dfd120f	0.1235696
35	0x3d0934bd	0.03349756
36	0x3d3b5c02	0.045742042
37	0x3bc0195c	0.005862398
38	0x3de274fe	0.11057471
39	0x3d0acab0	0.033884704
40	0x3e62064b	0.22072713
41	0x3cd7858a	0.026308794
42	0x3db976f4	0.09055892
43	0x3d2528b5	0.040322024
44	0x3dae87d4	0.08522001
45	0x3daea968	0.085284054
46	0x3d968f8e	0.073516
47	0x3d098319	0.03357229
48	0x3c119453	0.008885461
49	0x3e362bb5	0.1779011
50	0x3d943e53	0.0723845
51	0x3d584e53	0.05280907
52	0x3db32603	0.087474845
53	0x3d4aeadd	0.04954039
54	0x3d5f3fdb	0.054504257
55	0x3d2afa28	0.041742474
56	0x3e061017	0.13092075
57	0x3e2a4f7b	0.16631882
58	0x3d8c6275	0.06854717
59	0x3e16c614	0.14723998
60	0x3e060acc	0.13090056
61	0x3d8a96e2	0.0676706
62	0x3d6cbd85	0.057797927
63	0x3e444f42	0.1917086

weight f4 [64, 64, 1, 1]
0	0x3e703806	0.23458871
1	0x3d892390	0.06696236
2	0xbd047d4b	-0.03234605
3	0xbde64249	-0.11243112
4	0xbc8755b7	-0.016520364
5	0xbce28f21	-0.02765614
6	0x3d74ef4c	0.059798524
7	0xbd77a631	-0.060461227
8	0xbd8bc9a0	-0.06825566
9	0xbd043e0e	-0.032285742
10	0xbcb87613	-0.02251724
11	0xbc91b4c5	-0.017786393
12	0xbe36de29	-0.17858185
13	0x3c814cda	0.015783716
14	0xbc9e79a4	-0.019345112
15	0x3bada0cf	0.005298711
16	0x3d99dbd2	0.075126305
17	0xbcfc97df	-0.030834137
18	0xbd2c001d	-0.041992296
19	0xbd785a92	-0.06063325
20	0xbd019d84	-0.03164436
21	0x3c21cc17	0.009875319
22	0x3e9c8b11	0.3057485
23	0xbc008d61	-0.007846207
24	0xbdd5bed4	-0.10436788
25	0xbdc7ef8e	-0.09762488
26	0xbd05141c	-0.03248988
27	0x3d8f9331	0.070104964
28	0xbc3c5c21	-0.011496575
29	0xbbd3d553	-0.006464639
30	0xbe171619	-0.14754523
31	0xb9facfd1	-0.0004783855
32	0x3db8faa2	0.090321794
33	0x3db74ffb	0.08950802
34	0x3d40b428	0.04704681
35	0xbd0d7f38	-0.034545153
36	0x3e4ea4a9	0.2018
37	0xbd2f5883	-0.04280902
38	0x3d831b1f	0.06401657
39	0xbc8aed56	-0.016958874
40	0xbd331fae	-0.043731384
41	0x3e7da250	0.24768949
42	0x3dbef81d	0.093246676
43	0xbce15c75	-0.027509907
44	0xbdc2a207	-0.095035605
45	0xbce950bc	-0.02848088
46	0xbc09b75e	-0.008405535
47	0xbcfa4a1c	-0.030552916
48	0xbd312ebc	-0.04325746
49	0x3d635c4a	0.055507936
50	0xbee0ba5e	-0.43892187
51	0xbd0b85f7	-0.034063306
52	0xbe287536	-0.16450962
53	0xbd3a16f4	-0.045432046
54	0x3e54a11e	0.20764586
55	0xbde2fb37	-0.11083072
56	0xbd57c132	-0.05267448
57	0xbd6d71e6	-0.05796995
58	0xbdd7c595	-0.10535733
59	0x3e7f42c3	0.24927811
60	0xbe01110f	-0.12604164
61	0x3c356c26	0.011073148
62	0xbdc9edc3	-0.098598026
63	0x3d4ca41f	0.049961206
64	0x3dbb6e20	0.09151864
65	0xbd9d6099	-0.0768444
66	0xbcb3b1c8	-0.021935359
67	0x3d6d9e3d	0.058012236
68	0xbda60710	-0.08106816
69	0xbd68c88e	-0.05683189
70	0xbdab4fc4	-0.083648235
71	0xbe6061d5	-0.2191232
72	0x3e32a240	0.17444706
73	0x3e492ed9	0.19646777
74	0xbdccd504	-0.10001567
75	0x3e340f17	0.17583881
76	0x3d9d0eec	0.07668862
77	0xbe5c9553	-0.21541338
78	0xbdc48d7a	-0.09597297
79	0xbdb8ed4a	-0.09029634
80	0xbe4c8b51	-0.1997502
81	0x3e303068	0.17205966
82	0x3da811d0	0.082065225
83	0x3e0f348f	0.13984893
84	0xbd213db5	-0.03936549
85	0x3e734cb8	0.23759735
86	0xbe558943	-0.20853142
87	0xbcd0ef78	-0.025504813
88	0x3e5b1e47	0.21398269
89	0x3e19dd86	0.1502591
90	0x3d5fcbf8	0.05463788
91	0xbde85254	-0.11343828
92	0x3d019f0c	0.03164582
93	0xbde44e21	-0.111477144
94	0x3d3eda81	0.0465951
95	0x3c1e17e5	0.009649252
96	0xbdcaa121	-0.09894014
97	0xbe5f31a9	-0.21796288
98	0xbe301df0	-0.1719892
99	0x3d92c8ff	0.07167243
100	0x3e156eaf	0.14593004
101	0xbdbf8b7e	-0.09352778
102	0xbcedfbb3	-0.029050684
103	0xbca107cc	-0.019657038
104	0xbe6bb7d6	-0.23019347
105	0x3e850ee8	0.25987935
106	0x3d8b00eb	0.067872845
107	0x3c9ed7f2	0.01939008
108	0xbdc05102	-0.09390451
109	0xbe388f42	-0.18023399
110	0x3c8c1cf5	0.017103652
111	0x3d91bb9c	0.07115862
112	0xbdcfb02a	-0.101410225
113	0x3ad0acd8	0.0015920652
114	0xbc2d0096	-0.010559222
115	0x3dc3abae	0.0955423
116	0xbd252f81	-0.040328506
117	0x3e54f172	0.20795229
118	0xbd6eaa3d	-0.05826782
119	0xbe279b66	-0.16367874
120	0x3dc77128	0.0973838
121	0x3e2fafff	0.17156981
122	0xbe0556e4	-0.13021427
123	0xbcf6258d	-0.030047202
124	0xbd650006	-0.055908225
125	0xbddcc0d7	-0.10778969
126	0xbd773ea4	-0.060362473
127	0xbdcf29a4	-0.10115364
128	0xbdc42d5c	-0.09578964
129	0x3da598f6	0.080858156
130	0xbe7b7bcd	-0.24558945
131	0xbd4af86b	-0.049553316
132	0xbd188d6b	-0.03724424
133	0x3da52b50	0.08064902
134	0xbd6b705c	-0.0574802
135	0x3d9208b3	0.071305655
136	0x3e294f44	0.16534144
137	0x3c3f99db	0.011694397
138	0x3d45e631	0.04831523
139	0xbe49a310	-0.1969111
140	0x3b956ae7	0.004559863
141	0x3c961691	0.018321307
142	0x3c899dfe	0.01679897
143	0xbd976712	-0.07392706
144	0xbd9dddc0	-0.07708311
145	0xbce297e7	-0.027660323
146	0xbdbf40d5	-0.093385376
147	0x3da2762d	0.079326965
148	0xbd99dbcd	-0.07512627
149	0xbe996dd8	-0.29966617
150	0x3e002539	0.125142
151	0x3e6a0740	0.22854328
152	0x3dc657a1	0.09684683
153	0x3e839f94	0.25707686
154	0x3de53fc0	0.111938
155	0x3d5b5995	0.05355223
156	0xbe5e50f1	-0.21710564
157	0x3e62bd05	0.22142418
158	0x3dae1f05	0.0850201
159	0xbd2dfe30	-0.04247874
160	0xbdf99cab	-0.12188085
161	0x3d77705b	0.060409885
162	0xbdc4350d	-0.09580431
163	0xbc3ebd9e	-0.011641888
164	0xbbf8a1d3	-0.0075876503
165	0xbd8b9fe8	-0.06817609
166	0x3c89682b	0.016773304
167	0x3d871bf6	0.0659713
168	0xbe2187f8	-0.15774524
169	0x3d8bdc6a	0.0682915
170	0x3e07d7ab	0.13265865
171	0x3e88d060	0.26721478
172	0xbd9b8b61	-0.07594944
173	0xbcd88ba8	-0.02643378
174	0x3c7eb7ab	0.01554672
175	0x3d5afb2d	0.053462196
176	0x3d839b5b	0.06426116
177	0xbe45ebb5	-0.19328196
178	0xbd40a147	-0.047028806
179	0x3dee167d	0.11625383
180	0xbeaef3d0	-0.3417039
181	0xbd7cc537	-0.061711516
182	0x3d283d34	0.041073993
183	0x3df713a4	0.12064293
184	0xbda2520a	-0.07925804
185	0xbc7070de	-0.014675347
186	0xbe80b00e	-0.2513432
187	0xbdbb6fb5	-0.09152166
188	0x3dd12ad3	0.10213246
189	0xbda9756d	-0.0827435
190	0x3df55d3b	0.11980673
191	0xbda0ec23	-0.078575395
192	0xbd682090	-0.05667168
193	0xbca3f447	-0.020013941
194	0x3d17023a	0.036867358
195	0x3de5a168	0.112124264
196	0xbd577af4	-0.05260749
197	0x3d8a66ae	0.06757866
198	0x3d99e70f	0.07514774
199	0xbd66e03a	-0.056366183
200	0xbd8313a4	-0.064002305
201	0xbc1ee54e	-0.009698225
202	0xbe5ea763	-0.2174354
203	0x3d8a2188	0.06744677
204	0x3c86d53c	0.0164591
205	0xbe019e5b	-0.12658064
206	0xbcc470c3	-0.02397955
207	0x3d5fa698	0.054602236
208	0x3d2e73f5	0.042591054
209	0x3d74459a	0.05963669
210	0xbdc69da5	-0.09698037
211	0x3d1e5155	0.038651783
212	0x3bcbe352	0.006222167
213	0xbe9236ab	-0.28557333
214	0x3e067bc5	0.13133152
215	0x3c2e0b94	0.010622878
216	0x3d7cbcbd	0.061703432
217	0xbd922d70	-0.07137573
218	0xbd485187	-0.048905876
219	0x3d1562ee	0.0364713
220	0xbe314248	-0.1731044
221	0x3e7c28d6	0.24624953
222	0xbd0b237a	-0.03396938
223	0xbd5e7cf9	-0.054318402
224	0x3d36a792	0.0445934
225	0xbe0d506d	-0.13800211
226	0xbe190617	-0.1494373
227	0x3c179abf	0.009253203
228	0xbc39f6fa	-0.011350388
229	0x3aa35fd0	0.0012464467
230	0xbdd4262e	-0.10358845
231	0xbda3d786	-0.08000092
232	0xbceecebf	-0.029151319
233	0x3d062c0f	0.03275686
234	0xbe1a8711	-0.15090586
235	0x3d6f9b1b	0.05849753
236	0x3d40f064	0.047104254
237	0x3e3e8a9a	0.1860756
238	0xbdb77926	-0.08958654
239	0x3d73c866	0.059517287
240	0xbd0d201f	-0.03445446
241	0xbdea0be0	-0.11428046
242	0xbdfd3561	-0.12363697
243	0xbe651a79	-0.2237338
244	0xbe0d4635	-0.13796313
245	0xbd2f8cc2	-0.042858846
246	0xbe1634e7	-0.14668618
247	0x3c3bcae1	0.011461944
248	0xbe40c0f6	-0.18823609
249	0xbd7c04b9	-0.06152794
250	0xbdd78554	-0.10523477
251	0xbe80ad21	-0.25132087
252	0x3de9bbc3	0.11412766
253	0x3e8486dc	0.2588414
254	0x3dd58d20	0.10427308
255	0x3e8da276	0.2766301

bias f4 [64]
0	0xbdcdef8c	-0.100554556
1	0xbca62cbf	-0.020285008
2	0x3cb31175	0.02185891
3	0xbd2712a1	-0.04078925
4	0x3cb5f9ec	0.022213899
5	0x3d9a96fd	0.0754833
6	0xbc5c1717	-0.013433239
7	0xbcbe6bca	-0.023244757
8	0x3dd9ba79	0.1063127
9	0x3cd818df	0.026379047
10	0xbcadca77	-0.021214707
11	0xbd0cdf7a	-0.03439281
12	0xbd9df2e4	-0.07712343
13	0x3d8da103	0.06915476
14	0x3dc6429d	0.09680674
15	0xbda11849	-0.0786596
16	0xbdc6d4da	-0.09708567
17	0xbcb1f5fd	-0.021723742
18	0xbae4467e	-0.0017416028
19	0xbda98fe2	-0.082793966
20	0x3dbfd79d	0.09367297
21	0xbd253c06	-0.040340446
22	0x3ddd5231	0.108066924
23	0x3dd0f290	0.10202515
24	0xbde96bb7	-0.11397498
25	0xbd042b09	-0.032267604
26	0x3c308fab	0.010776441
27	0x3c12a4a6	0.008950388
28	0x3d995748	0.07487351
29	0xbe046a37	-0.12931143
30	0xbd552da7	-0.05204549
31	0x3db0e9a8	0.086383164
32	0x3dac5266	0.08414154
33	0x3da5db30	0.08098447
34	0x3d6cef7c	0.057845578
35	0x3dd2af9b	0.102874
36	0x3c9c5e4c	0.019087933
37	0x3d92ac64	0.07161787
38	0x3dac34c6	0.08408503
39	0xbce6fe6b	-0.028197488
40	0xbdda2cad	-0.106530525
41	0x3dd5e37e	0.10443781
42	0xbc1f57fc	-0.009725567
43	0x3de8091d	0.11329863
44	0x3d0aa4ef	0.0338487
45	0xbced4d64	-0.028967567
46	0xbde545af	-0.11194932
47	0x3ce8df6b	0.028426846
48	0x3d74d4ca	0.059773244
49	0xbd8c9298	-0.06863898
50	0xbd1b59cb	-0.03792743
51	0x3d933540	0.07187891
52	0xbdd990d8	-0.1062333
53	0xbccec777	-0.025241597
54	0x3de63627	0.112407975
55	0x3dffdb86	0.12493043
56	0x3db4b156	0.08822887
57	0xbdb5890c	-0.0886403
58	0xbd1fc926	-0.03901019
59	0xbe1999dc	-0.15000099
60	0xbc453314	-0.012036104
61	0x3cd676a7	0.026179625
62	0x3d7a5e82	0.061125286
63	0xbbc8dc0c	-0.0061297473

weight f4 [64]
0	0x3f43a741	0.76427084
1	0x3f3f5ae2	0.7474805
2	0x3f62b810	0.8856211
3	0x3f998d0a	1.1996167
4	0x3f1145a3	0.5674688
5	0x3f61dc8f	0.8822717
6	0x3f32dcac	0.6986797
7	0x3fa8fabe	1.320152
8	0x3f5cc0ae	0.86231506
9	0x3f6a92fa	0.9163052
10	0x3f27225d	0.6528681
11	0x3f7f06a3	0.996195
12	0x3f80e333	1.0069336
13	0x3f7d8b62	0.99040806
14	0x3f722a98	0.9459624
15	0x3f31c006	0.6943363
16	0x3f774b9c	0.96599746
17	0x3f83040a	1.0235608
18	0x3f86aa84	1.0520787
19	0x3f604e76	0.8761972
20	0x3f600f5a	0.87523425
21	0x3f2b3372	0.66875374
22	0x3f535031	0.8254424
23	0x3f885289	1.0650188
24	0x3f83d1c2	1.0298388
25	0x3f73a34c	0.95171046
26	0x3f771f68	0.965323
27	0x3f85b0d7	1.0444592
28	0x3f736080	0.9506912
29	0x3f8e0a7e	1.1096952
30	0x3f8929ab	1.0715841
31	0x3f84970c	1.0358596
32	0x3f999cb5	1.2000948
33	0x3f9fdeac	1.2489829
34	0x3f1e6c10	0.6188364
35	0x3fa36bdd	1.2767292
36	0x3f657316	0.8962873
37	0x3f8987cf	1.074457
38	0x3f351a19	0.70742947
39	0x3f8811e9	1.0630466
40	0x3f7ac146	0.9795116
41	0x3f98d6d8	1.1940565
42	0x3f39a3e8	0.72515726
43	0x3f22d335	0.63603526
44	0x3f4986eb	0.78721493
45	0x3f6036b2	0.8758346
46	0x3f5f86ee	0.8731526
47	0x3f6340f2	0.88770974
48	0x3f541af0	0.82853603
49	0x3f6e69c4	0.93130136
50	0x3f776fdc	0.9665506
51	0x3f60b5fa	0.87777674
52	0x3f69ebe2	0.91375554
53	0x3f820057	1.0156354
54	0x3f50a0f4	0.81495595
55	0x3f522215	0.82083255
56	0x3f77c930	0.9679136
57	0x3f5c994b	0.86171407
58	0x3f6a2888	0.91468096
59	0x3f558136	0.83400285
60	0x3f87031a	1.0547822
61	0x3f4c087d	0.7970045
62	0x3f70d124	0.94069123
63	0x3f7534d2	0.9578372

bias f4 [64]
0	0x3e502da6	0.20329913
1	0x3e716233	0.23572616
2	0xbcfb2f61	-0.03066224
3	0x3a8c5b01	0.0010708274
4	0x3ea6683f	0.32501408
5	0x3e3e9900	0.18613052
6	0xbe8db6d0	-0.27678537
7	0xbd5383ef	-0.051639494
8	0x3e0679cb	0.13132398
9	0x3dd8b4f8	0.10581392
10	0x3e9fc6ee	0.3120646
11	0x3d719899	0.05898342
12	0x3da08d85	0.07839493
13	0xbd6b2e90	-0.057417452
14	0x3d7b7d6b	0.061398905
15	0x3e6c76ef	0.23092245
16	0x3e2fa810	0.17153955
17	0x3b1e0904	0.002411426
18	0x3c868554	0.016420998
19	0xbe1010f9	-0.14068975
20	0x3e0e4996	0.13895258
21	0xbe9b6233	-0.30348358
22	0xbe29b8c6	-0.16574392
23	0x3dc1129a	0.09427376
24	0x3d971534	0.07377091
25	0xbccad085	-0.024757633
26	0xbcdc3761	-0.026881875
27	0x3dbfd6fd	0.09367178
28	0x3d754b98	0.059886545
29	0xbbf5044c	-0.007477319
30	0xbd520a81	-0.05127955
31	0x3ce1987a	0.027538527
32	0xbc69cdec	-0.014270287
33	0xbc85cec3	-0.016333943
34	0x3eb402b3	0.3515831
35	0x3d2b5a92	0.04183442
36	0x3dfa43cb	0.12219962
37	0xbe094c43	-0.13407998
38	0x3e980ba5	0.29696384
39	0xbd22c967	-0.039742853
40	0x3df27b51	0.11839927
41	0xbbe87660	-0.0070941895
42	0x3e87bf8c	0.26513326
43	0x3ea0a2b6	0.3137414
44	0x3e374090	0.17895722
45	0x3e235ceb	0.15953414
46	0xbe0d2af7	-0.13785921
47	0xbddebff4	-0.10876456
48	0x3e2fed3d	0.17180343
49	0xbe099833	-0.13436966
50	0xbdafcb7b	-0.08583733
51	0x3df421cc	0.11920509
52	0x3e05f2e3	0.13080935
53	0xbdc06650	-0.093945146
54	0x3e1df063	0.15423732
55	0xbe49f332	-0.19721678
56	0x3d7b229e	0.06131231
57	0xbe21f872	-0.1581743
58	0xbe10e93c	-0.14151472
59	0xbe38c3a7	-0.18043385
60	0x3c33dec9	0.010978409
61	0x3e5ae846	0.21377668
62	0x3d115c60	0.035488486
63	0x3d5f2788	0.05448106

running_mean f4 [64]
0	0xbea13399	-0.31484678
1	0xbdeef47c	-0.116677254
2	0xbdb8cc92	-0.09023394
3	0xbf3eab47	-0.744801
4	0x3e81560a	0.25260955
5	0xbe2529f2	-0.16129282
6	0xbef1cb1c	-0.47225273
7	0x3f41dc39	0.7572666
8	0xbf0ba5fe	-0.5455016
9	0x3e16c9f5	0.14725478
10	0xbd450dd9	-0.04810891
11	0x3bcc7549	0.0062395674
12	0xbf203733	-0.6258423
13	0x3e6e9ca2	0.23301938
14	0xbf27fc26	-0.65619123
15	0xbf0ea1e9	-0.55715805
16	0xbe90f4d3	-0.28311786
17	0xbef71cfe	-0.48264307
18	0xbf032ef6	-0.5124353
19	0xbed2b05c	-0.41150177
20	0xbfb4bc7b	-1.412002
21	0xbd997a6b	-0.074940525
22	0x3f2f0928	0.68373346
23	0xbdff4c3c	-0.124657124
24	0xbe5336a0	-0.20626307
25	0xbd85a046	-0.0652471
26	0xbf2d5706	-0.6771091
27	0xbdb71c38	-0.08940929
28	0xbf2565e1	-0.6460858
29	0xbe360b48	-0.17777741
30	0xbec4b4a2	-0.38419062
31	0xbe016e6a	-0.12639776
32	0x3e2b343d	0.16719146
33	0xbf151b9e	-0.58245265
34	0x3d16dd14	0.03683193
35	0x3e464756	0.1936315
36	0xbdaca4bd	-0.08429859
37	0x3ea51ffe	0.3225097
38	0xbe2c205a	-0.16809216
39	0x3e6aac1b	0.22917216
40	0xbef37302	-0.47548681
41	0xbefa1f68	-0.48852086
42	0xbf3b6842	-0.7320596
43	0xbeb09c4d	-0.34494248
44	0x3eabab8f	0.33529326
45	0xbd87f214	-0.066379696
46	0xbdfc8555	-0.123301186
47	0xbdf3c645	-0.11903051
48	0x3d6045ab	0.05475394
49	0x3ee9e4cb	0.45682368
50	0xbeb95fab	-0.362058
51	0xbe6b4e4d	-0.22979088
52	0xbde07f54	-0.10961786
53	0x3e514626	0.20436916
54	0xbec72032	-0.3889175
55	0x3f3fee28	0.7497277
56	0xbe6d9198	-0.23200071
57	0xbf5abbcd	-0.8544281
58	0xbd610780	-0.054938793
59	0xbf2da475	-0.67829067
60	0xbef842f0	-0.4848857
61	0x3eb527c5	0.35381904
62	0x3eb14a5e	0.3462705
63	0x3f412a16	0.75454843

running_var f4 [64]
0	0x3f11a457	0.5689139
1	0x3eecf954	0.46283972
2	0x3f0ce362	0.5503446
3	0x3f755baf	0.95843023
4	0x3eb3cdee	0.3511805
5	0x3f400781	0.7501145
6	0x3efb8ef7	0.4913251
7	0x3f24ccb1	0.64374834
8	0x3ea85ad3	0.32881793
9	0x3ec87324	0.39150345
10	0x3ef228ca	0.47296745
11	0x3eda1fcc	0.42602384
12	0x3f4919a0	0.78554726
13	0x3f7a59b2	0.97793114
14	0x3f5b3a64	0.8563597
15	0x3f10df6d	0.5659092
16	0x3f1e548e	0.6184777
17	0x3f0b403d	0.54394895
18	0x3ecb2ded	0.39683476
19	0x3f00bf24	0.5029166
20	0x3fb65d27	1.4247178
21	0x3f76b31c	0.9636705
22	0x3f82631c	1.0186496
23	0x3f167d1a	0.5878464
24	0x3f87ea08	1.0618296
25	0x3f015136	0.50514543
26	0x3f75b03f	0.95972055
27	0x3f92d9ec	1.1472754
28	0x3f070e8f	0.5275659
29	0x3f2a4987	0.66518444
30	0x3f4271f3	0.7595512
31	0x3f97cc65	1.1859251
32	0x3eec2b46	0.46126765
33	0x3efd89d6	0.49519223
34	0x3f844bd9	1.0335647
35	0x3f35f50e	0.7107705
36	0x3f25d7e2	0.64782536
37	0x3fcee20b	1.6162733
38	0x3f42b29d	0.7605379
39	0x3f51a3a2	0.8189031
40	0x3eda7c7f	0.42673108
41	0x3f3e412d	0.743182
42	0x3f9cbf4c	1.2245879
43	0x3ee7d2ad	0.4527792
44	0x3f072243	0.52786654
45	0x3f345167	0.7043671
46	0x3ef22990	0.47297335
47	0x3efe85e9	0.4971154
48	0x3f786f6d	0.9704502
49	0x3f23945b	0.6389825
50	0x3f1a30ce	0.6023072
51	0x3f72672d	0.94688684
52	0x3f070ffa	0.52758753
53	0x3ee1db63	0.4411269
54	0x3f2b3e9f	0.6689243
55	0x3f0352bb	0.5129811
56	0x3f19f4e8	0.6013932
57	0x3fb35122	1.4009135
58	0x3ed1c580	0.40970993
59	0x3f03a3d7	0.51421875
60	0x3ef4b919	0.47797468
61	0x3f2718b1	0.6527205
62	0x3f1a494b	0.60268086
63	0x3f1dbddc	0.6161783
