pretrained_models/DSCNNM.pt (torch, 673887 bytes, 56 tensors)

weight f4 [172, 1, 10, 4]
00000000: cac8 14bd a544 a4bd 961e b9bd af91 163e
00000010: d056 29be d11d 9cbd 0971 38be 9c1c 263e
00000020: f5ec 95bd 1178 ca3d 19e7 6b3e 6182 b33e
00000030: 481d fe3c d21e 933c 6372 2d3e 6bf4 5f3d
00000040: 0359 09be c64d 04bb a572 c33d ef79 4bbd
00000050: c9c1 c7bd d5eb 023e 87dd b9bd 957f 63bd
00000060: d38b 953d 0b71 c73d 6d20 a33d 1dad 5a3e
00000070: 3453 b63d 30e6 a0bd 4559 b5bc ba42 323d
00000080: 5ffd 7bbd 58cc 03be 79c6 4e3d 63b4 97bd
00000090: c556 c0bc d65e 613d 4768 3bbd 0b67 b2be
000000a0: f032 04bd 7f17 063e df02 663d 8e9d a6be
000000b0: b60b 513d 45ef 00be 242e 933c a386 a8be
000000c0: aaf3 b5bd 2c55 69be 4b5f 173e a48c 23be
000000d0: 759e 29be b893 55be 386d 113e e0a4 9fbc
000000e0: 74ae 173d 58c1 40bd 713b a0bc ccb4 bc3e
000000f0: 03db 853d 2b52 54bd 9e2d 0b3e 44e4 ba3e
00000100: 0761 d03d 28b8 4b3e fdae 203e 1560 483e
00000110: 28ac e8bb a35f 863e 65e1 67bb 4613 373b
00000120: 037d fbbd 8677 633e 0d5e 0bbd 19c5 953d
00000130: 5941 8cbd 2d6b d13d e99b 8abd 5df8 cc3d
00000140: d5ff c93c 92c1 0f3d 02fa 863c 0fba 0f3c
00000150: bb79 f6bc d50b 5abc 4a5d a23c f1cd 3b3d
00000160: 681d 863d 4456 733d 9c28 5cbd 5d0f 303d
00000170: 6a53 8b3c ae48 b93d c2ef 0a3e cabc bdbc
00000180: 507e 39bc ca09 14be 36b8 b83d 2120 6b3e
00000190: 43ac 46be d08e 65be 18d9 ef3c 9e52 393e
000001a0: e99d 1cbd 8d38 9d3d 1673 adbe 37e5 66be
000001b0: eb06 c43e 99a2 34be ec9e 66be 1c32 85be
000001c0: d941 f33d 7db6 1dbd 871f 28bd 66f6 223e
000001d0: 3491 cfbc b7f3 f4bd 0e0e 2d3c 86e6 2c3e
000001e0: 81eb 43bd ffc0 ebbd 46be fdbc 8bfa 3f3b
000001f0: dd1b 28bd e0f6 c33b 96e8 f5bd 2abc 97bb
00000200: 967f c6bd bd10 10be 6fd5 94bd ccaa 893d
00000210: 988f 063e b509 39be d8ea b0bc 424f 8cbc
00000220: 4514 983d ae97 69bb 7eb9 70bd d406 0cbe
00000230: b185 5f3e 83be da3a f7d9 b0bd acdf a7be
00000240: b439 693e d8d9 7c3e 5b04 343b 0f5a c0be
00000250: 2660 cb3d dd53 743d 37c3 053e 75c2 edbd
00000260: 5087 56bb eed4 093e a7a1 7c3d b04f 72bd
00000270: e524 d4bc ce12 fa3d 2881 823d d3e6 50bd
00000280: 0823 2e3e fbf1 0ebe b5a7 963c b085 f03d
00000290: 893e 803c a96f 2abe 5e1d 25be 2041 6b3d
000002a0: 7a24 623c 116c e23d f466 45be ebcb f3bd
000002b0: beb9 773d 2046 a93e f98d 8c3e 0007 553e
000002c0: 1eda 2ebe e69a c03c af55 d7bd e465 2a3e
000002d0: 752e ff3b c052 87be 30b5 35be 226b c3bd
000002e0: b7a8 b2bd d99b c4bd 1911 1b3e 5316 36be
000002f0: ec60 793b f521 0dbe 4edd e13c 250c 1d3c
00000300: 829b 35bd 75d8 eb3b c0e6 123d 74ac a8bc
00000310: be11 093d 0c19 c7bd 50c8 6fbd 7964 973d
00000320: 4384 1bbd d88f 2ebc 717f 4d3d 14d7 6ebd
00000330: d63c 7bbd b718 9a3d 36aa 65bd a891 26be
00000340: b417 1ebd cb5e ebbd 7dd3 21be 3d8f 8b3c
00000350: ba0a 5a3d 5120 82bd cde2 8c3d 3b01 c13e
00000360: 299e 6a3e 3b7c 743e def0 943e 7cd9 bf3e
00000370: 185b 4a3e 4fec 403e d62c 893e 8e1a 8e3d
00000380: 4978 fc3c e429 653c eff9 e03d 59c4 01be
00000390: 7781 1bbc b40a 6ebb d0e8 ef3c 32d2 50bd
000003a0: 1ac0 62bd 996a 943c 272f 923d 9785 5dbd
000003b0: 2786 0f3d c0a7 4cbd ae5c d73d 138d dd3c
000003c0: a191 15be ecc6 773d 37bb 813e f1dc d33d
000003d0: 5e3f 3ebe a83f 6a3d dfe2 333e 4ad0 533e
000003e0: af4e 193c 0e15 ac3c 1c6f e93a a567 213e
000003f0: 500a 82bd 24e4 2a3e 49e2 34bd 8e12 dd3d
-0.0363243 -0.080209054 -0.09039037 0.14704011 -0.16537023 -0.076228745 -0.1801187 0.16221851
-0.073205866 0.09886182 0.23037376 0.3506041 0.031019822 0.017959032 0.16938166 0.054676455
-0.13412862 -0.0020187958 0.09543351 -0.04967683 -0.097537585 0.12785275 -0.09075456 -0.055541594
0.0730206 0.09738358 0.07965169 0.213551 0.089025885 -0.07856405 -0.022137294 0.043520667
-0.06152093 -0.1287092 0.050482247 -0.07407453 -0.023478875 0.055022083 -0.045753743 -0.3484424
-0.03227514 0.130949 0.05615508 -0.3254208 0.05103656 -0.12591274 0.017966338 -0.3291522
-0.08884366 -0.22786397 0.14782445 -0.15971619 -0.16564353 -0.20857131 0.1420182 -0.019487798
0.037031606 -0.047059387 -0.019559594 0.36856687 0.06535914 -0.051836174 0.1359162 0.36502278
0.101747565 0.19894469 0.15691753 0.19567902 -0.0071006007 0.2624484 -0.0035382148 0.0027935072
-0.122797035 0.22213563 -0.03402524 0.07312984 -0.068484016 0.1022552 -0.06768019 0.10008309
0.024658123 0.035096712 0.016476635 0.008772387 -0.030087342 -0.013308485 0.019819874 0.045850698
0.065485775 0.05940844 -0.053749666 0.0429834 0.017007548 0.09047066 0.13568023 -0.02316131
-0.011321619 -0.14456859 0.090195104 0.22961475 -0.1940165 -0.2241776 0.029278323 0.18097922
-0.038236532 0.07676802 -0.33876866 -0.22548376 0.38286528 -0.17640151 -0.22521561 -0.26014793
0.11877794 -0.038504113 -0.04104569 0.15914306 -0.025337793 -0.119605474 0.010562433 0.16884813
-0.047832016 -0.115114205 -0.030974519 0.0029293622 -0.041042197 0.0059803575 -0.12007253 -0.004630585
-0.09692304 -0.14068885 -0.07267272 0.0672203 0.13140714 -0.18070109 -0.021596357 -0.017127637
0.07425741 -0.0035643387 -0.05877065 -0.1367448 0.21828343 0.0016688857 -0.086353235 -0.32787836
0.22775918 0.24692476 0.0027468416 -0.3756871 0.09930448 0.05965029 0.1306275 -0.11609355
-0.003273446 0.13460132 0.0616776 -0.059158027 -0.025896499 0.12210618 0.06372291 -0.05100138
0.17005551 -0.13959496 0.018390516 0.11744249 0.01565482 -0.16644157 -0.16124484 0.057435155
0.013802642 0.11055768 -0.19277555 -0.11904129 0.060479872 0.33061314 0.27452067 0.20803452
-0.17075393 0.023511361 -0.1051439 0.1664043 0.0077875205 -0.2643032 -0.17744899 -0.09541918
-0.08723586 -0.09600038 0.15143241 -0.17781954 0.0038052155 -0.13782485 0.027571347 0.009585415
-0.044337757 0.0071974345 0.03586459 -0.020590045 0.033464186 -0.09721574 -0.058540642 0.073922105
-0.03796793 -0.010654412 0.050170366 -0.058310583 -0.061337315 0.07524245 -0.05607053 -0.16266501
-0.038596824 -0.1149269 -0.15803333 0.017036075 0.053232886 -0.0635382 0.06879196 0.3769625
0.22911896 0.23875515 0.29090017 0.37470615 0.19761312 0.18840145 0.2679202 0.06938659
0.030819075 0.013987038 0.10985171 -0.12672557 -0.009491316 -0.0036322298 0.029285818 -0.050981708
-0.055358984 0.018117236 0.071379 -0.05408248 0.035040047 -0.049964666 0.10515724 0.027044808
-0.14606334 0.06049244 0.25338146 0.103448756 -0.1857886 0.057189614 0.17567013 0.20684925
0.009357139 0.021006133 0.0017809602 0.15762194 -0.06349623 0.16688591 -0.044161115 0.10794555

bias f4 [172]
00000000: 1640 f53d 7137 713d a5c2 18bd 24be a5bd
00000010: 2f72 193e c1fb aabd 766f a9bd 9d27 af3d
00000020: e990 7d3d b3d3 133e 19c8 b03d 6986 0ebe
00000030: 82da 9bbd 7236 763d 75a2 5bbd b05c ce3d
00000040: 9e44 18bd 635f 913c 9628 9c3d a4b5 04bc
00000050: c24e a03d 1d4a 36bd a511 f0bd a453 5d3d
00000060: deab 083e b3cc 013e 0376 21be c4bd 82ba
00000070: a5bb 9abd 8f1c 03bd 0ad6 c73d f7e5 fe3d
00000080: 9ab4 38bd 4911 ff3d 0285 05be f5fc 08bd
00000090: fbdc c1bd 0adb 07bd c8df 413d dac7 f3bd
000000a0: 7bcb b13d eba8 923d 4dfb bbbd eeb2 dbbd
000000b0: eca1 143d 7984 a1bd d2f5 743d b4ad 0bbd
000000c0: 2137 4d3d 3189 1ebd d0b7 8abd 3035 be3d
000000d0: 0c79 07be 08e7 c13d b38b 213e 6a50 5d3d
000000e0: 66c8 e23c 9386 9a3c 4d05 02ba ab9b cbbd
000000f0: 6134 793c 0cf3 cc3d b722 b83d 4de9 093e
00000100: e0c1 d53d 61f3 02be abcf 9b3d 53a2 773d
00000110: a511 1ebd 9202 06be 0d6f 0cbe af80 65bd
00000120: f64a cc3d 10bd 073d 7ae9 d13d ec0c 30bd
00000130: 9742 9b3d 081e 20bd 50c6 c6bd 24c3 133c
00000140: 9dfe fdbd 82b9 adbd 5182 e83d 9580 8f3b
00000150: c65b 17be 7d04 aabc dd7f 0f3e 9555 32bd
00000160: abea ce3d 06c3 f53d 381b 9bbd be0c 1f3e
00000170: 0c14 fc3d f0ea 043e 84e6 05bd 9776 163e
00000180: 983e 77bd e81f ee3c e8dd 243d 6dcf 1fbe
00000190: 788a 1ebe 3b65 1dbe 317a b43d 7713 b4bc
000001a0: 9105 0abe 9c42 01be 249a 993d 9897 033e
000001b0: bb6b 043d 13c3 debc e02c 58bd 33e3 b6bc
000001c0: 9e03 803d 5cf5 c33d ac73 90bd 5cf7 07be
000001d0: f853 e03d 8f4d 86bc f3fe 0a3e 30b8 0e3e
000001e0: 9c5a 703d 85a0 cf3d 3986 d7bd 0863 48bd
000001f0: 38e9 bbbd 3ec4 1bbd 6895 813d 925f f73d
00000200: d24b 993d 05b8 32bc 350e 3a3d 6c58 1f3e
00000210: 7369 06bc 07d3 a73d 775b f5bd e8bf 62bc
00000220: 1b62 483c 9208 e93d ff85 a3bc 099a b6bd
00000230: 16c8 02be 12e0 cd3d cecd 103d ed8e 96bd
00000240: 4a8b 7fbd 5664 313d 7cb4 883d 491b ccbc
00000250: 615d 433d 6813 0e3e dbb9 0ebb 772e 5dbd
00000260: f9c2 96bd abe9 d2bc c9da f23d 21c8 d0bd
00000270: 77b6 06be f24e 5e3d c199 463d 2558 03be
00000280: 4846 06bd 9fe8 5b3c d4e6 003e 1302 dabd
00000290: bdc1 13bc 8400 ecbd 3f83 be3d 129d cdbd
000002a0: 6321 bdbd f85e 9b3d 8e61 103e 5dfa 103d
0.11975114 0.058890764 -0.037295002 -0.08092907 0.14984964 -0.083487995 -0.082732126 0.085524775
0.061905775 0.14436226 0.086319156 -0.13918461 -0.076100364 0.060110517 -0.053621728 0.100762725
-0.037174813 0.01774568 0.07624929 -0.008099947 0.07827522 -0.044504274 -0.117221154 0.054034844
0.13346812 0.12675743 -0.15767674 -0.0009974767 -0.075553216 -0.032009657 0.097576216 0.12446206
-0.04509411 0.12454469 -0.1303902 -0.033444364 -0.09465977 -0.033167876 0.047332555 -0.11903353
0.08681389 0.07161125 -0.09178791 -0.107274875 0.036287233 -0.07886595 0.059804745 -0.034101203
0.050101403 -0.038705055 -0.06773341 0.092874885 -0.1322977 0.09467894 0.15775947 0.054031767
0.027683448 0.018862998 -0.00049598963 -0.09941801 0.015210242 0.10007295 0.08990996 0.13467903
0.10437369 -0.12788154 0.07607969 0.06045754 -0.038591046 -0.13086918 -0.13714238 -0.056030925
0.09975235 0.03313929 0.1024961 -0.042981073 0.075810604 -0.03909114 -0.09705794 0.009018693
-0.12402079 -0.084826484 0.11352981 0.004379342 -0.14781103 -0.020754093 0.1401362 -0.04353865
0.10103353 0.120000884 -0.07573551 0.15532205 0.12308511 0.12980247 -0.03269054 0.14693676
-0.06036243 0.029067948 0.04025069 -0.1560647 -0.15482509 -0.15370648 0.08812369 -0.021981938
-0.13478686 -0.12623066 0.07500103 0.12850797 0.032329302 -0.027192628 -0.05277717 -0.022325134
0.0625069 0.09568283 -0.07053313 -0.13277954 0.10953516 -0.016394405 0.13573818 0.1393745
0.05868016 0.101380385 -0.10523648 -0.04892257 -0.09175342 -0.038028948 0.06327325 0.120787755
0.07485165 -0.0109081315 0.045423705 0.15561074 -0.008203852 0.08194547 -0.11980336 -0.013839699
0.012230421 0.11378588 -0.019961355 -0.089160986 -0.12771639 0.10052504 0.03535252 -0.0735148
-0.062388696 0.04330858 0.0667505 -0.024915354 0.047696475 0.1387459 -0.002177826 -0.05399939
-0.07361407 -0.025746187 0.11858136 -0.101944216 -0.13155542 0.054274507 0.048486475 -0.12826593
-0.03278187 0.01342216 0.12588054 -0.10644927 -0.009018359 -0.11523536 0.09302377 -0.100397244
-0.09234884 0.07586473 0.14099714 0.035395015

weight f4 [172]
00000000: 63d4 773f 468f 693f 20d2 673f cdc7 173f
00000010: fc13 853f 3d24 283f 61b9 553f aea2 aa3f
00000020: d23a 793f 6777 273f 79c2 3a3f 289c 1d3f
00000030: 9073 3e3f 60f7 353f 5fe1 a23f 1230 9a3f
00000040: 1d09 5e3f 9766 9f3f 4aed 733f e56a 723f
00000050: f79c 8b3f d28f 7a3f 81ba 4d3f 6c10 6f3f
00000060: 4bf2 7f3f 7bd3 5b3f 1ec3 1a3f 78da 803f
00000070: 64c5 913f c004 923f 7e18 113f 380e 8a3f
00000080: 3de7 9d3f bf0c 863f c319 433f 36df 893f
00000090: ad0e 6f3f 4daf 6e3f f7c7 793f b1e9 6f3f
000000a0: 81ef 673f 9795 303f dd9e 693f a381 693f
000000b0: 3af5 a63f c435 5d3f 4cba 853f b608 3a3f
000000c0: feef 823f a044 7f3f 15f7 973f 9f59 593f
000000d0: 0677 633f 8f42 653f 7cc8 793f dfeb 8c3f
000000e0: 34cb 503f df76 923f c74e 693f 0e4c 9c3f
000000f0: 80b0 653f 4aa3 173f 070c 853f e008 953f
00000100: d99d 253f e9c3 8d3f c2eb 563f ca84 5e3f
00000110: 5fee 893f ce66 1e3f b838 4e3f 6751 723f
00000120: bade 4c3f 5680 623f d909 8b3f dbd8 693f
00000130: eca2 933f d4d0 a83f 8ba9 913f bcf2 bd3e
00000140: 1cf9 803f bf61 353f 3ada 483f 3d9d 983f
00000150: 8ee2 9d3f fc42 ab3f 7fed 1e3f 76e2 463f
00000160: d13f 5b3f 0873 5e3f e26e 893f 42f3 a13f
00000170: 4878 853f 845f 3a3f a718 543f d715 753f
00000180: 9d9d a43f 88ef 583f 2aa7 893f ebe1 7b3f
00000190: 9ecd 4b3f c4d7 473f 4da2 843f 2d87 3b3f
000001a0: 4ba8 3a3f 25d0 403f 34bc 8a3f bd88 603f
000001b0: e5c0 923f 00d8 5f3f 19ba 7b3f 7833 753f
000001c0: 1868 5d3f 9464 423f b0de 883f 45ee 553f
000001d0: 87bd 503f 4aa0 323f f919 173f b6a9 7b3f
000001e0: 3751 9a3f 56cf 6b3f c745 883f 2dd4 923f
000001f0: 9ed7 a03e c336 893f 4b99 913f 9b0b a23f
00000200: f677 823f cf6f 923f 2beb 973f 690f 713f
00000210: 7d9d 333f 0120 983f d037 913f e444 763f
00000220: 8eeb 863f c620 8f3f 749a 163f 1121 2f3f
00000230: 1cb9 503f c27e 3c3f 1c84 593f b117 8b3f
00000240: 5f63 a73f bed6 643f 8c30 b73f 6d1d 853f
00000250: e67c 8a3f 126f 693f cbb5 7b3f 55e3 a43f
00000260: 1120 843f c622 8e3f 46e6 3f3f 1937 833f
00000270: b05d 4e3f aa58 643f e73d 7f3f 0d6a 2f3f
00000280: 586d 523f 3906 613f 1d65 d93e ec31 6f3f
00000290: b358 d23e 600b 9b3f 967b 793f 1e54 683f
000002a0: 3c62 593f fe4c 7a3f 021e 7b3f acdc 6a3f
0.9680845 0.9123424 0.90555 0.59289247 1.0396724 0.65680295 0.8348599 1.3330896
0.9735538 0.6541657 0.7295299 0.615664 0.74395084 0.7108059 1.2725028 1.204592
0.86732656 1.2453183 0.9528395 0.9469436 1.0907277 0.978757 0.8036271 0.9338443
0.99979085 0.8586957 0.60453975 1.0066671 1.1388364 1.14077 0.56678 1.0785589
1.2336193 1.047264 0.76211184 1.0771244 0.9338177 0.9323624 0.9757075 0.9371596
0.9059983 0.68978256 0.9125803 0.91213435 1.3043587 0.86410165 1.0447478 0.7266954
1.022949 0.9971409 1.1872278 0.84902376 0.8885349 0.89554685 0.9757154 1.1009482
0.81560063 1.1442527 0.9113583 1.221071 0.8972244 0.59233534 1.0394295 1.1643333
0.6469398 1.1075412 0.8395349 0.8692137 1.077587 0.6187562 0.80555296 0.9465546
0.80027354 0.88477075 1.086238 0.9134652 1.1534095 1.3188729 1.1379865 0.37099254
1.0076022 0.70852274 0.7845799 1.1922985 1.2334764 1.3379817 0.6208114 0.776893
0.8564425 0.86894274 1.0736964 1.2652361 1.0427332 0.72801995 0.82850116 0.9573645
1.28606 0.84740496 1.075414 0.983916 0.7961062 0.7806361 1.036203 0.73253137
0.72913045 0.75317603 1.0838685 0.87708646 1.1465117 0.87438965 0.9833084 0.9578166
0.8648696 0.7593472 1.0692959 0.83566695 0.81539196 0.6977583 0.59024006 0.98305833
1.2056035 0.92113245 1.0646294 1.1471001 0.31414503 1.0719837 1.1374906 1.2659792
1.0192859 1.1440371 1.1868643 0.9416414 0.70162183 1.1884767 1.1345158 0.9619887
1.0540636 1.1181877 0.58829427 0.6840983 0.81532454 0.7363092 0.8496721 1.0866605
1.3077201 0.8939017 1.431169 1.0399605 1.0819366 0.91185105 0.9832427 1.2881876
1.0322286 1.1104362 0.74960744 1.025119 0.80611706 0.8919779 0.9970383 0.68521196
0.82198095 0.8790012 0.42459956 0.9343555 0.41083297 1.2112846 0.974542 0.9075335
0.8491552 0.9777373 0.98092663 0.9174297

bias f4 [172]
00000000: 22ec 1b3d 7897 153e ce3e 043e 8f77 b03e
00000010: 192c b9bd 5c93 a03e 57bd 213e 4697 58bc
00000020: 3a3c ce3c 2667 8bbe f2c3 79be 699b 50be
00000030: 9c7b 583e 7638 803e 29c1 6a3d 8907 113d
00000040: 4609 11be 2562 e8bd 2191 ef3d 6ebc ac3d
00000050: f348 e7bd 7d51 01be 890e 61be 2466 153e
00000060: b75b 013e a988 1a3e e6b6 973e dec8 f7bd
00000070: 31d2 a1bd ae6c c63c eadf b03e 8b07 b7bd
00000080: ddb5 5c3d e2df d63d a2d2 613e 7374 a8bd
00000090: 019b 0a3e 2327 19be 1e59 c1bd 4136 fc3d
000000a0: 7c50 a73d 6e8c 783e c109 25be 0ca3 873d
000000b0: 1069 c93c fdf8 b2bd 9c4e cabc 5fa5 933e
000000c0: d3aa b1bd 70ef e6bd 35ef a73d 0c5e 1c3e
000000d0: 126f 1a3e c956 e73d 0cb3 cfbd e8b6 4cbd
000000e0: 30e7 5dbe e02c acbd 1043 0b3e 500f 83ba
000000f0: 7fea 133e 6622 b23e 8882 87bd ce52 ec3b
00000100: 1c63 973e 261a 5a3d 53fb 363e 67d2 323e
00000110: 18da 613d 3d47 983e 896a 4b3e 551d b6bd
00000120: 03cd 5c3e b91f f43d 668e 16bd 3358 0bbe
00000130: dd17 be3c 9f7e 193b 5598 10bc 77e1 d93e
00000140: 8a2f b0bd 2935 873e eeef 2d3e 0e7d 1ebd
00000150: ed88 7b3d 9ebd 753c 4200 843e d4ed 533e
00000160: e6b8 413e 4d26 2a3e 480c 9f3d dc9f ccbc
00000170: 805b abbd 3fc7 903e bb89 233e a15a 023e
00000180: 0fbe 85bc 8704 35be 1848 c83d 282b abbd
00000190: 6853 3e3e 8e81 553e e4b6 8e3d d9a4 833e
000001a0: eaa2 893e 03e4 733e 9479 333c 347c c8bd
000001b0: ebc5 0c3e 35fe 413e 2286 033e 2df0 14be
000001c0: 201a 003e c4c2 3d3e 41e0 323d 28f3 443e
000001d0: 7f6f 223e e132 833e d58b bb3e f4fd cc3d
000001e0: cb24 4d3d 4bec cc3d e3c0 c63c 63c3 24bd
000001f0: b010 fa3e 55a3 623d 3026 d5bc c68c 343b
00000200: 978c a4bd 26a5 1fbd a21d 903d 5846 adbd
00000210: 16aa 683e b126 2fbc ed58 8f3b fca5 cbbd
00000220: 2a58 19bd cb6b 7a3c 42d0 a33e aaee 933e
00000230: b10a 5f3e 3d19 813e a3f6 2e3e 1aa7 323d
00000240: f6b0 653b be54 353e 927d 6f3c a412 68bd
00000250: 19c8 4f3d 7222 20be 7291 f2bd d56b f43b
00000260: af7d 00bd af81 ce3d 236b 6dbe 553a 093d
00000270: 4729 3fbe 0db2 903d 89b7 38be b9d7 b53e
00000280: 7956 333e a1f0 143e 4cab 003f 44c9 2d3e
00000290: 27e8 fb3e 6523 983c ba8c 80bd 0e84 05be
000002a0: 4a2e 2c3e deba d9bd add9 0bbd b9d8 c73d
0.03806699 0.14608562 0.12914583 0.34466216 -0.09041614 0.31362426 0.15794884 -0.01321966
0.025175203 -0.27227134 -0.24391153 -0.20371784 0.21140903 0.25043076 0.057313118 0.035407577
-0.14163694 -0.113468446 0.11697603 0.084343776 -0.11293211 -0.12628742 -0.21978201 0.14589745
0.12632643 0.15091194 0.29631728 -0.12098859 -0.07901419 0.024221744 0.34545833 -0.089369856
0.053884376 0.10491921 0.22053006 -0.08225336 0.13535692 -0.14956336 -0.09440826 0.123150356
0.08169648 0.2427232 -0.16117002 0.066228956 0.02458623 -0.08738897 -0.024695687 0.28837106
-0.0867516 -0.11276138 0.08199922 0.15270251 0.15081432 0.1129585 -0.10141572 -0.04997912
-0.21670222 -0.08406997 0.13599801 -0.000999907 0.14444922 0.3479187 -0.06616694 0.0072120195
0.29567802 0.053247593 0.1786931 0.17463075 0.05513963 0.2974185 0.19864859 -0.088923134
0.21562581 0.11920113 -0.036756895 -0.13607864 0.023204738 0.002342142 -0.008825381 0.4255483
-0.08602817 0.26407745 0.16986057 -0.03869348 0.06140988 0.014998822 0.25781447 0.20696193
0.1891819 0.16616173 0.07766014 -0.02497857 -0.083670616 0.28277013 0.15970509 0.12729885
-0.016325979 -0.17677508 0.09779376 -0.08357841 0.18586504 0.20850202 0.06968477 0.25711706
0.26882106 0.23817448 0.010954279 -0.09789315 0.13747375 0.18944629 0.12844136 -0.14544745
0.12509966 0.18531328 0.043670896 0.19233382 0.15862845 0.25624755 0.3663012 0.10009375
0.050083917 0.10006007 0.024261897 -0.040225398 0.48840857 0.055331547 -0.026019186 0.0027549728
-0.08034628 -0.038975857 0.07036902 -0.08460683 0.22721133 -0.010690377 0.0043746145 -0.099437684
-0.037437595 0.015284489 0.31994826 0.28893024 0.21781422 0.25214568 0.17086272 0.04361639
0.0035048104 0.17708108 0.014617341 -0.056658402 0.050727937 -0.1563814 -0.11844148 0.0074591436
-0.03136986 0.10083329 -0.231854 0.033502895 -0.1866809 0.070652105 -0.18038763 0.35516146
0.17513455 0.14544918 0.5026138 0.16971308 0.49200556 0.018571565 -0.062768415 -0.13038656
0.16814533 -0.10631345 -0.03414314 0.097581334

running_mean f4 [172]
00000000: 10c5 ba40 80f6 c9c0 392c 3341 fde6 91c1
00000010: 798e 3b41 e836 a1c1 b74f ccbf 989d c53f
00000020: d1f0 883f 84b0 0cc0 debc 96c0 9d89 38c0
00000030: 4de6 8bc1 345c 9abf 8e90 a7c1 7d7d b0c1
00000040: 526e 78bf 61ea 4ec1 2bbf 82c0 048f c23f
00000050: 299c b541 36b2 76bf a8c0 f040 6d8e dbc1
00000060: ef67 8840 f0b3 04c1 01f4 67c1 1478 9ec0
00000070: 4090 d53f d314 4ac1 bb8e 47c1 e6b8 a2c1
00000080: f1ce e93f 4595 0442 7174 2cc0 1741 e940
00000090: e72e a440 4283 0b3f 2689 0c41 5d17 dfbf
000000a0: 0430 663f 4f44 83c0 14be f7bf 1b41 3b41
000000b0: 8942 d43f cd85 d740 ca3a 7dc1 a8e7 89c0
000000c0: b63a 4dc0 e88e a13f 70b5 f2c1 7e01 c040
000000d0: 144b 7141 cb2e b0bf ff07 f9bf 8e19 8ac1
000000e0: 3b1d 2741 6bc0 ca40 63fe 3441 57c4 7cc1
000000f0: b680 16c1 868f cfc1 b459 aac1 f707 93c1
00000100: cc3d b8c1 03f2 7540 4086 3340 b5a2 4b40
00000110: 664b 37c1 9696 ecc0 f5da cdc0 a15a 89c1
00000120: 1839 99c0 28d7 c8c1 3c31 0340 3cb8 cb40
00000130: fa76 4f40 bc4d c73e 9872 e741 081a dfbf
00000140: 6271 1741 cd18 3f40 3c92 b1c0 fc4e c63f
00000150: d972 fac0 f514 c0c0 5725 e13f cf09 38c1
00000160: b848 86c1 4d1c ecc0 69b0 0bc1 b4f6 3341
00000170: 4078 aac0 2bea d2c0 29f0 37bf f3fd 8341
00000180: 2667 9141 b140 8fbf fe37 ac40 2c21 60bf
00000190: 4a72 a0c0 313d 56c1 2b5b dec1 697a 5141
000001a0: be5b a0c0 f551 8ec1 61ad 43c0 e1cb 40c0
000001b0: 0763 0f41 9db9 43c1 ba07 3440 334b cdc1
000001c0: 7266 4a41 dd92 1ec0 1cfa 06c2 179f c541
000001d0: 4719 96c1 c2a1 2940 d04e 17c0 cf86 7841
000001e0: 7390 cd3f e4be 09c1 0305 e640 dd47 ef41
000001f0: 84f4 7840 85be 7a40 338e 4941 6695 9dbf
00000200: be51 2440 99c1 c2c1 b628 2940 ea1b db3e
00000210: 28bd 5f41 dc08 d53f 662b e3c1 6c77 1941
00000220: ef5b b941 ce8a 58bf 99e9 f8bf 6b1b a7c1
00000230: ed00 dfc0 d8e6 0cc1 5687 6941 1ea2 8a3f
00000240: fb5f 0e41 d6e4 4541 36f2 a440 a06e dfc1
00000250: be40 1c3f b0fb 5cc1 91d2 80c1 e9e0 fa3f
00000260: 3c00 a8be 593e 1c40 5609 17c2 8e81 5e40
00000270: e7a0 1dc1 d9d4 5a41 bbee aa3e e1cd 3dbe
00000280: 679f ec3f 6add c5c1 4e6d 03bf a63c 0fc1
00000290: fdd2 ddbf fbd4 9ac1 4141 c241 8431 a13f
000002a0: be12 5940 e601 1d40 9635 6f40 8e3c b640
5.8365555 -6.3113403 11.198297 -18.237787 11.722283 -20.15181 -1.5961827 1.5438719
1.0698491 -2.1982737 -4.710555 -2.8833992 -17.487452 -1.2059388 -20.945583 -22.061274
-0.97043335 -12.932221 -4.085836 1.5199895 22.70125 -0.9636568 7.5235176 -27.444544
4.262687 -8.29393 -14.497071 -4.952158 1.6684647 -12.630084 -12.472346 -20.340282
1.8266279 33.14577 -2.694607 7.2891955 5.1307254 0.5449716 8.7834835 -1.7429005
0.89917016 -4.1020885 -1.9354882 11.703395 1.6582805 6.735083 -15.826853 -4.3095284
-3.2067084 1.2621737 -30.338593 6.000182 15.08083 -1.376428 -1.9455565 -17.262478
10.444636 6.3359885 11.312106 -15.797935 -9.406424 -25.94508 -21.2938 -18.37889
-23.030174 3.8428962 2.805069 3.1818058 -11.455908 -7.393382 -6.432978 -17.169252
-4.7882195 -25.105057 2.04988 6.3662395 3.2416368 0.38926494 28.930954 -1.7429819
9.465181 2.9858887 -5.549101 1.5492854 -7.8265195 -6.002558 1.758952 -11.502395
-16.785507 -7.3784547 -8.730569 11.24773 -5.327179 -6.591085 -0.7185083 16.498999
18.175365 -1.1191617 5.381835 -0.87550616 -5.0139513 -13.389939 -27.794516 13.092385
-5.011199 -17.790018 -3.0574572 -3.0124438 8.961677 -12.232816 2.8129716 -25.661718
12.650011 -2.4777138 -33.744247 24.70268 -18.762342 2.650498 -2.3641853 15.532912
1.6059707 -8.609104 7.188112 29.91009 3.889924 3.9178784 12.597217 -1.2311218
2.5674891 -24.34453 2.6431098 0.42794734 13.983681 1.6643329 -28.39619 9.591656
23.16989 -0.845868 -1.9446288 -20.888388 -6.968863 -8.806358 14.595541 1.0830724
8.898433 12.368368 5.154567 -27.929016 0.6103629 -13.811447 -16.102816 1.9599887
-0.3281268 2.4413054 -37.759117 3.4766574 -9.851783 13.676965 0.33385262 -0.18535568
1.8486146 -24.733112 -0.5133866 -8.952307 -1.7330014 -19.353994 24.281862 1.2593236
3.391769 2.4532409 3.7376456 5.694892

running_var f4 [172]
00000000: 8495 d044 0184 4f45 d8a7 6945 9263 5545
00000010: 14ad cb44 309d 8f45 f2a1 fb44 a326 a543
00000020: 58ea 1144 978f fe43 830d f144 cc9e 0b44
00000030: ffe1 7145 b998 e744 10bb 0e45 8c49 4d46
00000040: ff37 3e44 d333 7946 099c 1f45 d10d 5043
00000050: bbbb c045 7cfd ce43 6ae9 0c45 be2a 2e46
00000060: 4035 4645 c5ab 0646 8ef0 6a45 0bc9 7345
00000070: 090b 1845 1567 4446 f474 1545 69c7 6b45
00000080: 80ae 0646 5471 1a46 5877 8844 0255 0345
00000090: 8613 b644 91bd 0443 e524 c444 70d4 0846
000000a0: 6cff 3c45 e4e7 0344 71ac 2844 3882 e044
000000b0: e240 2145 df99 4044 e83e ab45 d5a2 0c45
000000c0: b4d8 ac45 5d4e bd44 9b71 6e46 9a9e b144
000000d0: 32f6 4645 f542 3b43 1694 e944 4579 9d45
000000e0: d007 0745 33e5 8d45 65fd dd44 dea2 2045
000000f0: 8aeb 8045 4926 3746 9ece 5946 84e7 fd45
00000100: edac 9345 5729 8545 23d6 9e45 324f 8245
00000110: 17e3 f345 3cda 6144 c2ef 7d45 67e6 8345
00000120: b91f 6645 99cf 8b45 e261 6f44 0b0a 8d44
00000130: 8d3d e844 5d16 0c46 dd81 8146 c2de 3044
00000140: a2f3 cf45 db8e 1a43 dbf0 8144 b04d fe43
00000150: 0b0a dd44 f6f2 2046 6657 3945 c863 b544
00000160: 394c 3c46 b4b6 0c45 c176 3344 7b1e 9f45
00000170: 9794 bd44 1976 8844 1435 ac44 a477 2945
00000180: 6681 8a45 d77b 0d44 9ce9 ad45 a6a9 5a44
00000190: 8047 5e45 6268 3646 bc1d a145 bbca 1c45
000001a0: 4ef4 0645 5a36 0b46 2887 ce43 2367 5645
000001b0: 7120 e444 4288 ba45 2d3c c244 a0d8 7446
000001c0: 0ee5 0045 ab66 1e45 4081 0746 1a19 0246
000001d0: 7997 f745 39d0 8244 76b9 a844 c494 9046
000001e0: 2684 9044 91ce d944 390f 8845 f6d4 0b46
000001f0: 9875 1144 4ac9 fe44 653a c945 09ca d443
00000200: 5fc9 0845 6243 b146 6311 1544 3a91 1145
00000210: bd85 e944 cdb9 b745 e296 8e45 8361 8044
00000220: d90e ea45 1878 2145 8d93 8145 f9e2 fa45
00000230: 06f4 9145 f8fc cd45 ea1a 1345 b988 df44
00000240: fa6e 5246 91bc ae45 b58a 3945 05ae f046
00000250: 2ef0 b743 5f64 cc45 63e4 2846 3ddb fa43
00000260: 61c7 a443 3fc7 1b45 b3f3 3b46 4262 0045
00000270: 6d13 3b45 1b26 0b45 c8b6 0d45 f5d0 9243
00000280: cb62 0946 7221 7046 3cbd 4d43 ed44 9a44
00000290: 1883 9b43 94e5 3546 34f5 de45 baa9 0c45
000002a0: f685 f445 5065 d244 3541 9744 8ef8 3e44
1668.6724 3320.2502 3738.4902 3414.2231 1629.4087 4595.6484 2013.0608 330.30185
583.6616 509.1218 1928.4222 558.4812 3870.1248 1852.7726 2283.6914 13138.387
760.87494 15948.956 2553.7522 208.05397 6167.4663 413.98035 2254.5884 11146.686
3171.3281 8618.942 3759.0347 3900.5652 2432.6897 12569.7705 2391.3096 3772.4631
8619.625 9884.332 1091.7295 2101.313 1456.6101 132.7405 1569.153 8757.109
3023.9639 527.6233 674.6944 1796.0693 2580.0552 770.40424 5479.8633 2250.177
5531.088 1514.4489 15260.401 1420.9563 3183.3872 187.26155 1868.6277 5039.1587
2160.4883 4540.65 1775.9186 2570.1792 4125.4424 11721.571 13939.654 8124.9395
4725.6157 4261.1675 5082.767 4169.8994 7804.386 903.4099 4062.9849 4220.8003
3681.9827 4473.9497 957.5294 1128.3138 1857.9235 8965.591 16576.932 707.4806
6654.454 154.55803 1039.5267 508.60693 1768.3138 10300.74 2965.4624 1451.1182
12051.056 2251.419 717.8555 5091.81 1516.6434 1091.6906 1377.6587 2711.4775
4432.175 565.935 5565.201 874.65076 3556.4688 11674.096 5155.717 2508.6707
2159.269 8909.588 413.0559 3430.446 1825.0138 5969.032 1553.8805 15670.156
2062.316 2534.4167 8672.3125 8326.275 7922.934 1046.507 1349.7957 18506.383
1156.1296 1742.4552 4353.903 8949.24 581.8374 2038.2903 6439.2993 425.5784
2188.5857 22689.691 596.27167 2329.0767 1868.1793 5879.225 4562.8604 1027.0472
7489.856 2583.5059 4146.444 8028.3716 4670.503 6591.621 2353.6821 1788.2726
13467.744 5591.571 2968.6692 30807.01 367.8764 6540.5464 10809.097 501.7128
329.55765 2492.453 12028.925 2054.141 2993.214 2226.3816 2267.4238 293.63248
8792.698 15368.361 205.7392 1234.1539 311.02417 11641.395 7134.6504 2250.608
7824.745 1683.166 1210.0377 763.88367

weight f4 [172, 1, 3, 3]
00000000: 55d4 d33d 9252 753e 33cb 2fbc 6561 76be
00000010: 4413 10be 2800 633e 849d edbc ef57 7f3e
00000020: e3e0 9fbd 0f0c 1e3e 7c85 573e 5cb0 1e3d
00000030: 0b18 623e 300c 593e 05ac 813e c6df 9ebd
00000040: 8a40 203e 86e9 b13c 16f2 babe c1e6 7fbe
00000050: 7d3b 48be 5337 a43e ff98 ab3e b659 b2bd
00000060: c9d9 78bc d9e9 8b3c 52d6 563e 69bb ecbc
00000070: cea8 62be 506e 89bd a388 a83c 7f3a 97be
00000080: ddff 9dbe 79e2 903e a4ae ad3e 2c11 9cbd
00000090: c067 0cbd 6881 3a3e e1eb ebbd 1df3 ad3e
000000a0: 1ee2 a3be 4ecc f53b 0366 8abe 390f a03d
000000b0: 0949 0f3e 8d38 433d 4e55 ce3d 0736 a03d
000000c0: 9328 8f3e d5f7 733e dc97 833d 24d8 34be
000000d0: 452b 75be feef 92be b1da 27be f8fb 073e
000000e0: 7689 36bd 9022 eabd 39c6 0e3e 7de1 2ebe
000000f0: 20b0 743c 434a 863e 7312 c7be 0adb 15bd
00000100: c921 96be 610a 9bbe 44b2 87be 7991 bfbe
00000110: f13c 86be 9223 3cbe 24fd 4dbe 60d3 fdbd
00000120: f202 95bc 3e07 21be ba99 cd3c 3b9d 12bd
00000130: 3c35 a53e 8362 373d 48ad de3c ed28 11be
00000140: 6c57 2b3d 2fc0 453e 881d 54bc aac9 abbd
00000150: b16d f03e 2a21 fe3d 7fa2 96bd 0912 cb3e
00000160: 4035 ed3d f905 233d 5a25 bcbe 1f9f 773e
00000170: 7efb be3d 8cc3 a8be a6e5 803e 836f 97bc
00000180: b575 5ebe e2a3 e3bc 0878 3e3c b962 71be
00000190: 2a1a 37be f093 6bbc e843 a9be f765 ac3e
000001a0: d237 b53d b5dc 26be 4512 b8bd c0b9 a1bd
000001b0: f7b3 84bd 9b63 bcbe a77f fcbd f53a b63e
000001c0: 361f 323e d048 83be 94ba 0d3e c404 623d
000001d0: 706b 09bd f82c cb3d 1f9b babe 9c23 533e
000001e0: dacf 9b3e fb21 55be 71ad 953d bf0c a4bd
000001f0: 1682 a7be 49af febc 8218 6ebd d27c bc3e
00000200: 9ff2 973e e719 da3d 103e 943e 0dba 3c3e
00000210: ed9d 893e 6d08 b23d 8dbe e73d 40ac 9e3d
00000220: 6995 79bd f8e7 133e 31e9 bd3e 17a4 443d
00000230: 6fad 1f3e f843 573e c463 7d3e f824 f13e
00000240: f815 d53e c35e 0a3e f8b0 bcbd c80d c43e
00000250: 1426 9bbe ea70 443e 8ca3 d7bc 9d81 123e
00000260: 13d2 2d3e b9e9 803e 7efb 5a3e 21c8 533e
00000270: bd05 1ebe f55d 653d 91b8 153d 3e2e adbe
00000280: c09a 0ebe da89 00be 1ed0 aebe 2389 cdbd
00000290: 2258 41bd 7e15 cebe e95a 813e c552 07be
000002a0: ad90 8dbe a8f6 1cbd db38 9e3e 2be8 953d
000002b0: 8e1b 19be 0bba 773d ae66 0d3e 4088 773e
000002c0: fa6e 623e bd53 d43c 05fa acbd 0dfb 863c
000002d0: cd3e f9bc c03d c33d ad9a 83be 7618 5ebe
000002e0: dd87 cc3e b142 bc3c e04b d03e 7c40 453d
000002f0: 4943 5cbe 0746 8e3d 408b 8d3e 9d70 a53e
00000300: 7302 af3d 3eeb 613e 83be ad3e b210 1bbc
00000310: 46f6 a0bd ecaa 353d dd02 8ebc 19fb e4bd
00000320: 864b eb3d 97ac 12be 3d31 763e 688e c7be
00000330: ab8b e33d 9500 7e3e 1fdf 853e e37d c23d
00000340: 7c77 53be 2d72 6fbe 1819 74bd 1214 233d
00000350: 9739 34be f0e0 783e 7410 a43e c111 14bc
00000360: 8c14 1ebe d573 b6bd 8f25 99bc 5e4d 3a3e
00000370: fb7a 4fbe 5756 e8be f133 b83d 4693 25be
00000380: 5f14 a4be d23c 4abe f250 5b3e 20fd bbbc
00000390: 50ef 7fbe 1af5 5d3e 2a9c d13e 7881 6e3c
000003a0: 7b74 e9be 48cd 2f3e 4905 e83e 5e20 cabd
000003b0: 54bb 16bc 4e05 a43e c180 27bd 42b4 31be
000003c0: 0077 5fbe a977 11bc 6192 e7bd d68b 46be
000003d0: f72a 553e 8024 363e c9df 40be 45a1 893e
000003e0: f3ad cfbd 56cc 4dbe 12f2 aa3e 44b2 503d
000003f0: fc8e 363e fd65 48be d72f f13d 57dd ae3d
0.103432335 0.2395728 -0.010729599 -0.2406059 -0.14069849 0.22168028 -0.029005773 0.24935888
-0.078065656 0.15434287 0.21047014 0.03874241 0.22079484 0.21196055 0.25326553 -0.07757525
0.1564962 0.021717798 -0.36512822 -0.2499037 -0.19553943 0.3207346 0.33515164 -0.08708517
-0.015188643 0.01707928 0.20980194 -0.028897958 -0.22134706 -0.067104936 0.020572966 -0.29536816
-0.3085927 0.28297785 0.33922303 -0.07620463 -0.03427863 0.18213427 -0.115196 0.33974543
-0.3200845 0.0075011617 -0.27030954 0.078154035 0.13992704 0.047661353 0.10074864 0.07822805
0.27960643 0.23825009 0.06425449 -0.17660576 -0.23942287 -0.28698725 -0.16392018 0.13279712
-0.044564687 -0.114323735 0.13942803 -0.17078204 0.01493457 0.26228532 -0.38881263 -0.036585845
-0.2932265 -0.30281356 -0.26503193 -0.37415674 -0.2621837 -0.18372944 -0.20116097 -0.12393832
-0.018189881 -0.15725419 0.025097717 -0.035794478 0.32267177 0.044771682 0.027182236 -0.14175768
0.04183142 0.19311593 -0.012946494 -0.08388074 0.46958688 0.12408669 -0.073552124 0.39662197
0.11582422 0.039800618 -0.36747247 0.24181794 0.09325312 -0.3296169 0.25175208 -0.01848579
-0.21724589 -0.027788106 0.011625297 -0.23572816 -0.17881075 -0.014378533 -0.3305962 0.33671543
0.088485375 -0.1629513 -0.0898786 -0.07896757 -0.06479638 -0.36794743 -0.12329035 0.35591856
0.17394719 -0.2564149 0.13840705 0.055180326 -0.033549726 0.099206865 -0.36446473 0.20619053
0.30432016 -0.20813744 0.07308472 -0.080102436 -0.32716435 -0.031089442 -0.05812884 0.3681398
0.29677293 0.10649472 0.289536 0.18430348 0.268783 0.08693013 0.113156416 0.07747698
-0.060933504 0.14443958 0.37091973 0.04800805 0.15593503 0.21022022 0.24745089 0.47098517
0.41618323 0.13512711 -0.092134416 0.38291764 -0.3030249 0.19183698 -0.026323102 0.14307256
0.16974668 0.25178316 0.21384999 0.20681812 -0.15431876 0.055997808 0.03655297 -0.33824342
-0.1392622 -0.12552586 -0.34143156 -0.100359224 -0.04720319 -0.40250772 0.2526467 -0.13215168
-0.2764944 -0.038321167 0.30902752 0.07319673 -0.14951918 0.06048016 0.138087 0.24173069
0.22112647 0.025918836 -0.08446125 0.016477132 -0.030425454 0.09533262 -0.25703946 -0.21689019
0.39947405 0.02298102 0.40682888 0.0481572 -0.21510042 0.069469504 0.27645302 0.3231248
0.08545389 0.22062394 0.3393441 -0.00946443 -0.07859473 0.044352457 -0.01733535 -0.111807056
0.11489014 -0.1432365 0.2404222 -0.38975835 0.11110624 0.2480491 0.2614679 0.09496667
-0.20651048 -0.23383398 -0.059594244 0.039814062 -0.17600094 0.24304557 0.32043803 -0.009037436
-0.15437526 -0.08908812 -0.018694667 0.18193576 -0.20261757 -0.45378372 0.08994282 -0.16169462
-0.32046792 -0.19749764 0.21417597 -0.022947848 -0.24993634 0.2167553 0.40939456 0.014557235
-0.4559668 0.17168152 0.45316532 -0.09869455 -0.009199936 0.32035297 -0.040894274 -0.17353919
-0.21822739 -0.008878627 -0.113072164 -0.1938928 0.20817171 0.17787361 -0.18835367 0.2688085
-0.101406 -0.20097479 0.3338781 0.050951257 0.17827982 -0.19570155 0.11776703 0.08538311

bias f4 [172]
00000000: 0a1b 91bd f914 6a3e 3271 ee3d 786e a13e
00000010: 8eaf dcbd 94ca 5e3d 733e 9e3e c1a9 9abe
00000020: 21ff e4be cb25 b63d 60e3 2f3e baf4 e23d
00000030: d3b0 723e 1b63 d5bd 8ab3 31be 93fe 48be
00000040: 092f 6abd 04dc bf3e 2a3c 88be a05f 8dbe
00000050: 4d9e 993e 50de 8e3e ae3f 2f3e 569a 13be
00000060: 34f8 833e 763e 983d f04b a0be c179 99be
00000070: 65ba 25be b777 ee3d 43a0 cbbe 8a54 42be
00000080: 3e83 71bd a2ee 3b3e c1a4 84be 6a31 64bd
00000090: 81cc 85be 0461 093d 8705 19bd af2d b9bd
000000a0: e921 45be 1ebe f5bc 89e6 a33e 18b5 44be
000000b0: 7379 773e 5de9 a03d 8f3d 9abd 88bc 893d
000000c0: 3b78 26be 47b2 5bbe 433d 993e 9755 fa3d
000000d0: fcb0 623e c962 17be 949e 0f3e 1a03 99be
000000e0: b830 773e b95c 713e 0430 20be 43e5 42bd
000000f0: bb57 303e 31c3 9a3c 9907 8b3d 3952 98bd
00000100: c66a c33e bc64 dabd 9f61 c8be b477 af3d
00000110: 22cc 793d 350d 88be 6eac 823e 5450 5cbe
00000120: c2a8 6f3e 1fba 8b3e 12fd c0bd 7d4a ac3e
00000130: a44d 923e 5789 04be 19e2 c33d d9a7 173d
00000140: 5ca1 0abe cf0b 6fbe e52c 7b3e 2aa2 a93e
00000150: 8192 953d d785 23bd 98d7 0b3e 1deb 0e3e
00000160: a29c 983e 48f7 c7bc a4fa 10be e481 b0be
00000170: b84f 05be 6bda b63d d17b 423e 23b5 873e
00000180: ea47 a2be ab35 14be 5019 a8be 9592 5ebe
00000190: c478 21bd d900 09be ca54 a8be 3ad3 e33d
000001a0: fa50 ee3d f863 613e ff49 7f3e 0b24 afbe
000001b0: 2a6a 783d 786c 3b3c 165c 753e 496c d8bd
000001c0: f687 a7be b479 28bd bdcc 533e 1d8d 1f3e
000001d0: d572 74bd bf32 86bd 901f 33be f287 6e3e
000001e0: b924 5f3e e2be 713e b96f 033d 1562 713e
000001f0: 84b9 273d 9ae4 883e 7ce1 133d 9041 3f3e
00000200: 8f2f 89be 7d78 aa3d 0db5 22bd ae18 83bb
00000210: 3b1f 743c 9803 863e d5bf 4b3d 164b a13e
00000220: 5441 38bd bdc5 7dbe 56e6 8ebe b58e 25be
00000230: e343 cabd e45e e33d c381 323b 964e 75bd
00000240: a145 b13d 8927 88be b924 443e 706c f2bd
00000250: 104a e43d dade 80be 61fb 7d3d a497 fabc
00000260: facb 6ebe 46f5 453e 7ac4 913e 9857 d43d
00000270: 2184 3ebe 7797 5bbe 9081 cf3c cc35 cebd
00000280: 9baa ddbd 007c 013e 7db6 7a3e 2990 e43c
00000290: 2102 98be 6621 303e e3bb 3a3e 9784 453e
000002a0: 0558 9f3e bf1e 363e d8bc 2d3e ec2b a83d
-0.070852354 0.22859563 0.11642684 0.31529593 -0.10775672 0.054392412 0.3090702 -0.30207637
-0.44725898 0.08893927 0.1717658 0.11081834 0.23700266 -0.104192935 -0.17353645 -0.19628362
-0.057173762 0.37472546 -0.26608402 -0.2761202 0.30003586 0.27903986 0.17114136 -0.14414343
0.257753 0.074337885 -0.31307936 -0.29975703 -0.16184385 0.116439275 -0.39770707 -0.18977562
-0.058963053 0.1835275 -0.25906947 -0.055711187 -0.26132587 0.033539787 -0.037358787 -0.090419166
-0.19251217 -0.029997882 0.32011822 -0.19209707 0.24167423 0.078570105 -0.075312726 0.067254126
-0.16256802 -0.21454726 0.2992955 0.12223356 0.22137827 -0.14783777 0.14025337 -0.2988518
0.24139678 0.23570527 -0.15643317 -0.047581922 0.17220967 0.018891903 0.067885585 -0.07437558
0.381674 -0.10663745 -0.3913698 0.085677534 0.06098569 -0.26572576 0.25522178 -0.21515018
0.2340422 0.27290437 -0.09423269 0.3365058 0.2857486 -0.12943016 0.09564609 0.037025306
-0.13538116 -0.23344348 0.24528845 0.33131534 0.07303334 -0.03992256 0.13656461 0.13956876
0.29807 -0.024409905 -0.14158112 -0.344741 -0.13018692 0.08928379 0.18992545 0.26505384
-0.3169549 -0.14473598 -0.32831812 -0.21735604 -0.03942181 -0.1337923 -0.3287719 0.11124273
0.11636539 0.22010791 0.24930571 -0.34207186 0.06064812 0.011439435 0.23960909 -0.10567529
-0.32720917 -0.04113169 0.2068357 0.15581174 -0.059679825 -0.06552648 -0.17492509 0.23294047
0.21791352 0.23607972 0.03208897 0.23572572 0.040948406 0.2673691 0.03610371 0.18677354
-0.26794097 0.083237626 -0.039723445 -0.004000745 0.014900024 0.26174617 0.049743492 0.315026
-0.044984177 -0.24782462 -0.27910107 -0.1616772 -0.098762296 0.11102083 0.0027237989 -0.0598894
0.08655859 -0.26592663 0.19154634 -0.11837089 0.11146939 -0.25170022 0.06200731 -0.030589886
-0.23319998 0.19331846 0.28470212 0.1036827 -0.1860509 -0.21444498 0.025330335 -0.10068855
-0.10823556 0.12644958 0.24483676 0.027900772 -0.29689124 0.1720024 0.18235736 0.1928886
0.3112184 0.17785166 0.1696657 0.082115024

weight f4 [172]
00000000: 6738 533f f56e 7d3f ddd9 953f ee79 773f
00000010: 68a5 7a3f 8823 673f 4ac7 6c3f 63d3 a63f
00000020: a279 7f3f 3e1c 5d3f 0733 8f3f 6806 623f
00000030: c386 743f 59c9 8d3f b8ac 5a3f 5f2a 5d3f
00000040: 64b6 4f3f af31 793f e963 903f 43f8 833f
00000050: bf1d 6a3f 3fd6 7c3f 6468 563f 5ee9 8a3f
00000060: 2765 b23f 73c2 453f 3d14 633f 84e4 673f
00000070: 1f19 b53f 8c78 803f ddd5 4b3f 47eb 573f
00000080: d9a5 733f 867c 943f d699 873f 3016 8d3f
00000090: ab1c 933f 113a b33f 4eda 6b3f 42dd 7f3f
000000a0: 7afa 3c3f 1d1e 993f 314c 703f 8802 833f
000000b0: 70c4 9c3f 6538 9a3f 378b 963f 3776 783f
000000c0: c80e 7a3f 6bc0 673f a3d2 903f d3f8 993f
000000d0: e968 533f e0d0 4b3f 9962 793f 9923 803f
000000e0: 1bc2 783f 385d 7b3f f471 923f d543 873f
000000f0: 07ae a13f 6792 9c3f 58a2 523f 619f 583f
00000100: 99e7 5f3f abce 7d3f ea3b 703f 5d30 963f
00000110: dcb3 553f f9b4 493f e231 633f c38a 7c3f
00000120: 2f5a 673f 1d20 5e3f a2b0 913f d691 753f
00000130: f7a1 633f 07f5 9d3f 1f2d 8d3f be1f 673f
00000140: b1ab 583f 89cf 7b3f 1b63 1f3f 95d2 a03f
00000150: cc48 703f 78df 9e3f 8f36 593f a0ab 693f
00000160: d133 5c3f 1952 603f 1138 463f 44fe 883f
00000170: 28a7 6c3f d520 4c3f a23b 853f 872b 753f
00000180: 8fa6 863f 97fd 773f b7ec b23f e94f 833f
00000190: fc01 5a3f 04ad 873f 05a2 7d3f 7849 983f
000001a0: 4a78 3e3f f6cb 463f fd2e 3c3f 3146 5a3f
000001b0: 614f 863f 3e48 553f 22c4 b33f 2310 8a3f
000001c0: cfef 8f3f c98e 5d3f 8c4f 783f 0416 a43f
000001d0: 4c45 5b3f 986f 573f bcfb 503f f9a8 9e3f
000001e0: 98b5 a33f 541c 3d3f 4c85 653f 473f 803f
000001f0: a56f 6a3f c817 b13f 5598 973f e103 823f
00000200: da15 613f 3b57 453f 27e3 b43f 7f40 553f
00000210: df0c 633f bed1 833f 5d34 753f 4355 7e3f
00000220: 51c3 913f ef33 7a3f 7125 853f bc39 8c3f
00000230: 5a23 6f3f f09c 733f 27ca 813f 1466 833f
00000240: e40f 913f 3695 923f b9bc 653f 475d 5c3f
00000250: f75d af3f f591 a73f a06b b23f 89b8 8b3f
00000260: 6a67 1f3f e3b6 7a3f 00e0 573f f0f6 513f
00000270: 1ac4 823f 76d8 493f 8c03 623f aa19 953f
00000280: b2cc 9c3f cafb 943f bb3c 8c3f 328b 5c3f
00000290: 8494 843f f69a 633f a1d3 863f a2bf 823f
000002a0: 6895 a03f 5363 a93f 99f8 4f3f 2b74 8b3f
0.8250794 0.9899743 1.1707112 0.96670425 0.9790864 0.9028859 0.9249159 1.303326
0.9979497 0.8637122 1.1187447 0.88291025 0.9551813 1.1077071 0.854198 0.8639278
0.8113768 0.97341436 1.128049 1.0310138 0.9145164 0.98764414 0.8375304 1.0852468
1.3937119 0.7724983 0.88702756 0.9058306 1.4148291 1.0036788 0.79623204 0.8434338
0.9517494 1.1600502 1.0593822 1.1022396 1.1493124 1.4002095 0.9212998 0.9994699
0.73819697 1.1962315 0.9386626 1.0235147 1.2247448 1.204846 1.1761235 0.9705538
0.97678804 0.9052798 1.1314281 1.202906 0.82581955 0.7961559 0.97416073 1.0010864
0.9717118 0.98189116 1.1441026 1.0567576 1.2631234 1.2232178 0.82278967 0.8461819
0.87462765 0.99143475 0.9384142 1.1733509 0.8347757 0.7879177 0.8874799 0.98649234
0.90371984 0.8676775 1.1382029 0.95925653 0.88919014 1.2340401 1.1029395 0.9028281
0.8463698 0.9836355 0.622606 1.2564265 0.9386108 1.2411947 0.84848875 0.91277504
0.86016566 0.8762527 0.774293 1.0702596 0.9244256 0.797376 1.0408823 0.9576954
1.051958 0.9687132 1.397849 1.0258762 0.8515928 1.0599675 0.9907535 1.1897421
0.74402297 0.7765497 0.735092 0.85263354 1.0492975 0.8331336 1.404423 1.0786175
1.1245059 0.86546 0.9699638 1.2819219 0.85652614 0.84154654 0.81634116 1.2395316
1.2789793 0.7387135 0.8965652 1.0019311 0.91576606 1.3835382 1.1843363 1.0157434
0.8792397 0.7708623 1.4131821 0.8330154 0.88691515 1.0298383 0.95783025 0.9934885
1.1387731 0.97735494 1.0402051 1.0955119 0.9341332 0.9516134 1.0139817 1.0265527
1.1332974 1.1451786 0.8974109 0.8607983 1.3700551 1.3091418 1.3939095 1.0915691
0.6226717 0.97935313 0.8432617 0.8201742 1.0216095 0.7884592 0.8828666 1.1648457
1.2249968 1.163934 1.0956033 0.86149895 1.0357823 0.88908327 1.0533334 1.0214732
1.2545595 1.3233436 0.81238705 1.0894827

bias f4 [172]
00000000: 5412 a63d 891d 5d3d 6a3f a3bc 5088 3bbc
00000010: 158a 40bd 460c 093e 59ef 0c3e 5ab4 d83e
00000020: bfbc a2be 665b aa3e 279e 6abc ea87 41bf
00000030: 399b ac3d 9af3 d03d 434d 69bd d54a cdbd
00000040: 6c4f 59bd 62e8 fb3d 5bef c23d 8bcb 74bc
00000050: 3493 43be 21b8 f63e c50a 09be c72b 633d
00000060: 0f1d 483e b3f6 58bd 8667 833d a9ed a63d
00000070: a283 d93d 7b8b 18be b855 3fbc e8bc b0bd
00000080: b870 cbbd 24d1 883c 7ab8 b93e 05a7 40bd
00000090: 4e4e 8a3e abf6 813f 5bdb 32bc 5c9f 443e
000000a0: cd54 2f3d c764 cdbc 4074 fb3d f59f 4cbe
000000b0: 85fc 283e 3670 01be 9f64 dfbd 38d7 c6bc
000000c0: 9ac2 5ebe bb9d 9a3d e5a3 4a3d f819 813e
000000d0: c988 433d 8112 afbe 0f68 8abe a87f 70be
000000e0: 344c d43c e0f0 0a3e 7bf3 07bf 684d fa3d
000000f0: e282 533d a08e 1a3d f710 c83d 760d 85bd
00000100: c212 1a3e 7f44 fe3e d577 4ebe e83b 4b3e
00000110: e4cb babd 607c 23be c4a3 16bd 7a20 79bd
00000120: ae5c f63c 6651 1f3d 87d9 b83e b506 ecbc
00000130: 850e 54bd 799a 643e 2b9d f4bc 2548 3dbe
00000140: 0ee7 3fbd d963 57be 5e16 f9bd f075 043f
00000150: c67a 4e3d ef44 313e 46a3 74bd d37a a8bd
00000160: cda3 20bd a946 72bd de93 67be cdd0 b63c
00000170: 3570 6c3e a87c 94be 7096 a83e c830 1c3c
00000180: 5122 a53c 0f31 8c3e ac3f abbc ac2d f63d
00000190: d4f0 d5bc 3fcd e6bd a844 993d 045b 40be
000001a0: 68d3 a6bd 0036 85be 2785 14be c988 dabb
000001b0: 322d 9f3c 82cc e3bd 1895 cc3d 201c 3c3d
000001c0: 4427 363d 0e16 febd 3ebd 4ebd ac1e 5abe
000001d0: 6eef 653e 2946 adbd 8e60 023e c14e 82bc
000001e0: 812e 5d3e 7585 16be 961f a43d 26dc e8bc
000001f0: c688 80be f9c4 b93e 4aab febd fbf2 813e
00000200: d154 53bc 2aaa 2cbe 11d5 7a3e dc1f 753c
00000210: 486b fe3d f468 7a3d 6802 36bc 23e9 483e
00000220: 2a7a 5e3e 42b6 17bd 6660 07be 6210 083e
00000230: 26dd a6be eaa0 6ebd 29a6 5ebc dcfd 2ebc
00000240: fcea 173e a89e ba3d 3497 0abd a267 1cbe
00000250: 1c9b cd3d df6a 9f3e 75c5 f33d 6edf 8abe
00000260: 9cdf e03e 541d 4c3d faff a4be 001e 6aba
00000270: a99f fabd 47e4 3bbe 1cc3 6fbd 2dbd 31be
00000280: de9a cc3d 9343 273e 91ac c8be d808 64be
00000290: 1d1c 43bd 1e7c dbbe c270 92bd 364a b13d
000002a0: 6320 2e3d b466 12bd df44 0f3e c266 e4bc
0.081089646 0.053983245 -0.0199277 -0.011446074 -0.047006685 0.13383588 0.13763179 0.42325097
-0.31784627 0.33272856 -0.014319933 -0.75598013 0.08428044 0.10202713 -0.05695845 -0.10024039
-0.05305426 0.12300183 0.0951831 -0.014941107 -0.19099122 0.48187354 -0.13383015 0.05546167
0.19542335 -0.052969646 0.0641623 0.08150799 0.1062081 -0.14896958 -0.011678152 -0.08629781
-0.09933609 0.016701289 0.36273557 -0.047034282 0.27012867 1.0153402 -0.010916556 0.19201416
0.04280548 -0.025072468 0.12278032 -0.19982894 0.16502579 -0.12640461 -0.10907864 -0.024272546
-0.21753922 0.07549616 0.04947271 0.25215125 0.04773787 -0.34193805 -0.27032515 -0.23486197
0.025915243 0.13568449 -0.53105897 0.12221795 0.05163849 0.037733674 0.09768861 -0.06496708
0.15046218 0.49661633 -0.201629 0.19847071 -0.0912092 -0.15965414 -0.036777273 -0.060821988
0.03007349 0.038895987 0.3610346 -0.028811792 -0.05177166 0.22324552 -0.0298601 -0.18484552
-0.04685121 -0.21034183 -0.12162469 0.5174246 0.050410055 0.17311452 -0.059726022 -0.08226552
-0.039218713 -0.059149418 -0.22615 0.02231636 0.23089679 -0.29001355 0.32927275 0.009533115
0.020157965 0.2738118 -0.020904385 0.1202043 -0.026115812 -0.11269616 0.07483798 -0.1878472
-0.08145791 -0.2601776 -0.14503919 -0.006669138 0.01943073 -0.11122991 0.09989375 0.04592526
0.04447104 -0.1240655 -0.050473444 -0.21300763 0.22454616 -0.084606476 0.12732145 -0.015906693
0.21599771 -0.14699347 0.08013837 -0.028425287 -0.2510435 0.3628309 -0.124350145 0.25380692
-0.01289864 -0.16861787 0.24495341 0.014961209 0.12422806 0.061135247 -0.011108972 0.19620185
0.2172629 -0.03703905 -0.13220367 0.132875 -0.32590598 -0.05825893 -0.01358942 -0.010680642
0.14835733 0.091122925 -0.033835605 -0.15273908 0.100393504 0.31136224 0.11902896 -0.27123588
0.439206 0.049832657 -0.32226545 -0.0008930862 -0.12237484 -0.183488 -0.05853568 -0.17357321
0.09990476 0.16334371 -0.39194158 -0.22268999 -0.047634233 -0.4286813 -0.07150413 0.08656733
0.042511355 -0.035742477 0.13991116 -0.02788103

running_mean f4 [172]
00000000: f21a cd3d 56f0 213f 1ce5 fe3d 53bc 123e
00000010: 08e7 9fbd b3c5 813d 4ad5 d53e 8ae8 77bf
00000020: 8c06 e9be e50a 103e 5ed0 553e a55d c53d
00000030: 2253 313e 300d d1be f67b 123f 6763 183f
00000040: 8b2c 5dbd ce2d aa3e a1dc f0be fa9a 66be
00000050: 423b f53e d476 f53e 7660 143e 620f 1fbe
00000060: 0e88 19be bb11 bf3d 1e11 b0be 76b7 0dbe
00000070: 3141 f9be b1b1 1f3f 3f6f edbe fc5d 073e
00000080: 0200 7bbd a1b8 3ebe 42de 28bf 89ba 9d3d
00000090: 6ef6 60be 2461 7dbe 4a8e 483e 82f5 4fbe
000000a0: 22a3 7dbd 4f6b 1ebd a860 ee3e 7d9b 50be
000000b0: 10a3 74be 2edf ac3d 767b 89be 6cdd 2b3d
000000c0: e504 dabb 420a 4fbe e736 3abe 30f3 423e
000000d0: b94c 593d cb9b 88bd 3895 913e d6fb eebe
000000e0: 3352 8f3e 77f8 3a3e d9dd 23be 0df5 4ebf
000000f0: eac8 4a3f 5bd8 72be 32ff 613d e7ef 783d
00000100: 2b9b 003f c0f0 5bbe 1718 14bf b5d2 89bd
00000110: 1c78 d43e 1f3c 97be 80f1 a8be 31b9 cbbb
00000120: 9465 873e 19ab 173f d53d 90be 416a 3f3e
00000130: 320c bc3e 1195 abbe 808f ca3d 7f6d 873d
00000140: 5c3b 0dbd 07ab 6dbe 6351 833e 335a ebbd
00000150: 9bb1 2b3e 649f a8be e765 1d3f e179 743e
00000160: dc2e c13e 066c b53d 411e 4ebe ab95 cfbe
00000170: 67a6 a03d b042 083e 3b81 383f ef6d 8f3e
00000180: 332b a3be fe29 2dbd 489c 1cbf 4064 98be
00000190: 52de 3e3e dbb5 0dbf 62b2 d7bd d65f b43d
000001a0: 5be1 fc3d 33f0 d03e de95 983e a4e5 0bbe
000001b0: 6c6e fe3d 0b47 e8bd 5773 ebbd 519d dbbd
000001c0: f157 8abe edf7 903e 424d 8d3d a299 1c3e
000001d0: ac81 fbbd bd81 4e3c 3706 21be d39d 953d
000001e0: 0962 94be 0394 e23e cfc1 f13d db8c 813e
000001f0: 03c1 febc ee61 84be 261c e33c 38a7 e23d
00000200: ca99 95be 5f10 c13e 0fda 21bf 6846 b73a
00000210: ae7b 87bd be51 e73d 2041 6d3c 1758 ce3d
00000220: ed3f 8abd cbf7 21bd 2183 bdbe d412 63be
00000230: f095 28be 36a8 6a3e 742a c2bd 7f25 583e
00000240: 1b7b c7bc 2ecf 02bf 3376 603e 0b63 5ebd
00000250: 1d57 e4be e939 e1be 142c 04be ded3 2abd
00000260: c27b c3bd aa22 9d3e a25c bf3e 30be c83b
00000270: e9f4 28bd 6157 57be 0f2e 293e 7aee 05be
00000280: c475 17bf 87df 5ebd 23f9 3f3e 38bc 063b
00000290: 9104 b7be 4055 103f 8a49 393e b13e 663e
000002a0: 2427 513d 413a 363e 8f5a 703e 4f66 17be
0.10014905 0.6325735 0.12446043 0.14329652 -0.078077376 0.06336536 0.4176429 -0.968392
-0.45512807 0.14066656 0.20880267 0.09637002 0.17316869 -0.40830374 0.572204 0.59526676
-0.053997558 0.3323807 -0.47043326 -0.22520056 0.47896773 0.4794222 0.14489922 -0.15533212
-0.14993307 0.09329554 -0.3438806 -0.13839516 -0.4868255 0.6238051 -0.46373937 0.13219446
-0.061279304 -0.18625118 -0.6596414 0.077015944 -0.21969005 -0.24744087 0.19585529 -0.20308498
-0.061923154 -0.038676556 0.46558118 -0.20371814 -0.23890328 0.08441006 -0.26852006 0.04195921
-0.0066534155 -0.20218757 -0.18185006 0.19038081 0.053051684 -0.0667034 0.28434157 -0.4667651
0.279924 0.18258844 -0.16002597 -0.8084267 0.7921282 -0.23715346 0.055175014 0.060775664
0.5023677 -0.21478558 -0.5784926 -0.06729642 0.41497886 -0.29538056 -0.3299675 -0.006217145
0.26444685 0.5924545 -0.28172174 0.18692876 0.36728054 -0.33512166 0.09890652 0.066126816
-0.034480438 -0.23209773 0.2564803 -0.114918135 0.1676697 -0.32934105 0.61483616 0.23874618
0.37731063 0.088584945 -0.20128728 -0.40543875 0.07844239 0.1330669 0.7207219 0.2801356
-0.31868896 -0.042276375 -0.61175966 -0.29763985 0.18639496 -0.55355614 -0.10532071 0.08807342
0.12347671 0.40808257 0.2980184 -0.1366182 0.12423405 -0.11341675 -0.11496609 -0.10723365
-0.2702022 0.28314152 0.068995014 0.15292981 -0.12280592 0.012604174 -0.15725027 0.07305493
-0.28981045 0.4425355 0.11804544 0.25302777 -0.031097895 -0.25855964 0.027723383 0.11067051
-0.29218894 0.37707803 -0.63223356 0.0013982775 -0.06615387 0.11294888 0.014480859 0.100753956
-0.06750474 -0.039542954 -0.37014106 -0.22175151 -0.16463447 0.2291573 -0.094807535 0.21108054
-0.024350693 -0.5109738 0.2192009 -0.054293673 -0.44597712 -0.43989494 -0.1290744 -0.04170596
-0.09545089 0.3069051 0.3737536 0.0061261877 -0.04124919 -0.21029426 0.16521476 -0.13079253
-0.5916407 -0.05441239 0.18747382 0.0020558964 -0.3574567 0.5638008 0.18094459 0.22484852
0.051062718 0.1779566 0.23472045 -0.14785121
